FACE_REC_3/data/embeddings/007_b82eb947.npy (npy, 1152 bytes, 1 tensors)

array f8 [128]
-0.11107738316059113 0.14072708785533905 0.15088678896427155 -0.12525072693824768 -0.1538304090499878 0.06444025784730911 -0.07330264151096344 -0.06381405889987946
0.27906763553619385 -0.2314765453338623 0.20713263750076294 -0.08433384448289871 -0.2844901382923126 0.0661131963133812 -0.09988453984260559 0.1632126271724701
-0.1285875290632248 -0.18858744204044342 0.017552318051457405 -0.1511296033859253 0.17792461812496185 0.008430267684161663 -0.04428217560052872 0.014440836384892464
-0.25144654512405396 -0.3168729543685913 -0.0962958037853241 0.008877353742718697 0.04136865586042404 -0.1298600435256958 0.028661198914051056 0.08261236548423767
-0.168483704328537 0.04786081612110138 -0.044502295553684235 0.18477889895439148 -0.07001178711652756 -0.21317768096923828 0.14916467666625977 0.06172538176178932
-0.23857136070728302 -0.06529407948255539 0.06204143539071083 0.23460836708545685 0.17891830205917358 0.004387957975268364 0.05274453014135361 -0.10894408822059631
0.1402512639760971 -0.27461645007133484 0.012761775404214859 0.2158534824848175 0.0601530484855175 0.10917168110609055 0.1266651749610901 -0.192007377743721
0.037875499576330185 0.08799132704734802 -0.16177108883857727 -0.009416176937520504 0.10057301074266434 -0.11375607550144196 -0.018761973828077316 -0.14307452738285065
0.2076236754655838 0.12397588044404984 -0.0956808403134346 -0.17786547541618347 0.3271990418434143 -0.12660491466522217 -0.0708729475736618 0.18115276098251343
-0.12649397552013397 -0.17261254787445068 -0.18638372421264648 0.024444257840514183 0.3998967409133911 0.2003311961889267 -0.052051667124032974 0.07721936702728271
-0.057438869029283524 0.017844900488853455 -0.0030040042474865913 0.16844461858272552 0.021261928603053093 0.019451715052127838 -0.07837609946727753 0.04357682168483734
0.23684322834014893 -0.05962532013654709 -0.0350724458694458 0.22863410413265228 0.05273927003145218 -0.008217835798859596 0.00023804791271686554 0.04371242970228195
-0.196284681558609 0.03401348367333412 -0.12242494523525238 -0.0757448747754097 0.012551257386803627 -0.038811296224594116 -0.04761471599340439 0.10486051440238953
-0.1756567507982254 0.19816747307777405 -0.035024166107177734 -0.05562226474285126 -0.08081759512424469 -0.06354881823062897 -0.07396042346954346 0.05200590938329697
0.15903553366661072 -0.33645227551460266 0.09169036895036697 0.1600988209247589 0.055532120168209076 0.18377065658569336 0.1274031102657318 0.12142891436815262
0.08427649736404419 -0.1323743462562561 -0.16779911518096924 -0.12100232392549515 -0.045415982604026794 -0.06533796340227127 -0.03196099027991295 0.03912276774644852
00000000: 0000 0040 916f bcbf 0000 0060 5803 c23f
00000010: 0000 0020 4250 c33f 0000 0040 3708 c0bf
00000020: 0000 0000 b7b0 c3bf 0000 0020 287f b03f
00000030: 0000 0040 f6c3 b2bf 0000 0040 1e56 b0bf
00000040: 0000 0080 3edc d13f 0000 0000 06a1 cdbf
00000050: 0000 0080 5283 ca3f 0000 0020 e796 b5bf
00000060: 0000 0020 1635 d2bf 0000 0060 cbec b03f
00000070: 0000 0080 0892 b9bf 0000 00c0 26e4 c43f
00000080: 0000 0060 8e75 c0bf 0000 0020 a223 c8bf
00000090: 0000 0020 3cf9 913f 0000 0000 3758 c3bf
000000a0: 0000 00e0 3bc6 c63f 0000 0060 e343 813f
000000b0: 0000 0040 27ac a6bf 0000 0040 2893 8d3f
000000c0: 0000 0040 b317 d0bf 0000 0080 a547 d4bf
000000d0: 0000 0080 d7a6 b8bf 0000 0040 4a2e 823f
000000e0: 0000 00c0 452e a53f 0000 0000 419f c0bf
000000f0: 0000 0080 5c59 9d3f 0000 0080 1526 b53f
00000100: 0000 00c0 df90 c5bf 0000 0080 3681 a83f
00000110: 0000 0040 01c9 a6bf 0000 00c0 d5a6 c73f
00000120: 0000 00e0 4aec b1bf 0000 0000 6849 cbbf
00000130: 0000 0000 d417 c33f 0000 0020 789a af3f
00000140: 0000 00a0 8189 cebf 0000 00e0 1cb7 b0bf
00000150: 0000 0020 e5c3 af3f 0000 00a0 a507 ce3f
00000160: 0000 0080 cbe6 c63f 0000 0080 1bf9 713f
00000170: 0000 00c0 5401 ab3f 0000 0080 c2e3 bbbf
00000180: 0000 00e0 c0f3 c13f 0000 00e0 5093 d1bf
00000190: 0000 0080 d822 8a3f 0000 0040 16a1 cb3f
000001a0: 0000 0060 61cc ae3f 0000 00e0 acf2 bb3f
000001b0: 0000 0080 9036 c03f 0000 00a0 b293 c8bf
000001c0: 0000 00e0 6a64 a33f 0000 0080 9986 b63f
000001d0: 0000 0040 eab4 c4bf 0000 00e0 c948 83bf
000001e0: 0000 0020 27bf b93f 0000 0040 1e1f bdbf
000001f0: 0000 00c0 5636 93bf 0000 0020 4450 c2bf
00000200: 0000 00a0 6993 ca3f 0000 0020 e2bc bf3f
00000210: 0000 0020 8a7e b8bf 0000 00c0 4bc4 c6bf
00000220: 0000 0040 d4f0 d43f 0000 0000 9734 c0bf
00000230: 0000 00c0 ba24 b2bf 0000 0080 0330 c73f
00000240: 0000 0060 f430 c0bf 0000 0000 2b18 c6bf
00000250: 0000 0000 6cdb c7bf 0000 0060 ea07 993f
00000260: 0000 0080 e897 d93f 0000 00e0 73a4 c93f
00000270: 0000 0020 84a6 aabf 0000 0000 a6c4 b33f
00000280: 0000 00a0 a068 adbf 0000 0000 ef45 923f
00000290: 0000 0080 da9b 68bf 0000 00e0 978f c53f
000002a0: 0000 00e0 afc5 953f 0000 0080 26eb 933f
000002b0: 0000 00c0 7410 b4bf 0000 0080 b34f a63f
000002c0: 0000 0000 e150 ce3f 0000 00c0 3587 aebf
000002d0: 0000 0000 04f5 a1bf 0000 00e0 e143 cd3f
000002e0: 0000 0040 a400 ab3f 0000 0040 83d4 80bf
000002f0: 0000 0000 9033 2f3f 0000 00c0 7961 a63f
00000300: 0000 0040 db1f c9bf 0000 0020 376a a13f
00000310: 0000 00c0 3d57 bfbf 0000 0020 0464 b3bf
00000320: 0000 0040 79b4 893f 0000 0000 13df a3bf
00000330: 0000 00c0 f460 a8bf 0000 0080 23d8 ba3f
00000340: 0000 00a0 eb7b c6bf 0000 0040 8d5d c93f
00000350: 0000 0000 b0ee a1bf 0000 0080 857a acbf
00000360: 0000 0040 76b0 b4bf 0000 0040 bc44 b0bf
00000370: 0000 0000 12ef b2bf 0000 00c0 84a0 aa3f
00000380: 0000 00c0 465b c43f 0000 0020 6f88 d5bf
00000390: 0000 0020 0579 b73f 0000 0040 1e7e c43f
000003a0: 0000 00c0 b46e ac3f 0000 0000 cc85 c73f
000003b0: 0000 00c0 be4e c03f 0000 0020 f715 bf3f
000003c0: 0000 0000 2593 b53f 0000 0080 a4f1 c0bf
000003d0: 0000 0000 717a c5bf 0000 0020 02fa bebf
000003e0: 0000 0080 c340 a7bf 0000 0020 fdb9 b0bf
000003f0: 0000 00e0 305d a0bf 0000 0040 e607 a43f
