FACE_REC_3/data/embeddings/009_b86449f6.npy (npy, 1152 bytes, 1 tensors)

array f8 [128]
0	0xbfa522dce0000000	-0.04128160700201988
1	0x3faa555440000000	0.05143225938081741
2	0x3faf48e6c0000000	0.06110306829214096
3	0x3fa3ce07c0000000	0.038681261241436005
4	0xbfc929b540000000	-0.19658532738685608
5	0xbfa3ec7840000000	-0.03891349583864212
6	0x3faf7bcd80000000	0.06149141490459442
7	0xbfbcd64c00000000	-0.11264491081237793
8	0x3fb0b27f60000000	0.06522365659475327
9	0x3faeaa1920000000	0.05989149585366249
10	0x3fd0f31740000000	0.2648370862007141
11	0xbfc047fa60000000	-0.12719659507274628
12	0xbfd32576a0000000	-0.2991615831851959
13	0xbfbc417020000000	-0.11037350445985794
14	0xbf98964c40000000	-0.02401084080338478
15	0x3fbfb77d00000000	0.12389355897903442
16	0xbfb22096c0000000	-0.07080976665019989
17	0xbfc087df80000000	-0.1291465163230896
18	0xbfa33fcfc0000000	-0.037596218287944794
19	0xbfb0a85c40000000	-0.06506897509098053
20	0x3f9193a440000000	0.017164770513772964
21	0xbf9e573100000000	-0.029629483819007874
22	0x3fa915bf80000000	0.048994049429893494
23	0x3fb09310c0000000	0.06474404036998749
24	0xbfb6aaeec0000000	-0.08854572474956512
25	0xbfd541c400000000	-0.3321390151977539
26	0xbfb2c402a0000000	-0.07330337911844254
27	0xbfb869e500000000	-0.09536582231521606
28	0x3fb8a4b400000000	0.09626317024230957
29	0xbfb8951d60000000	-0.09602531045675278
30	0xbf9198b100000000	-0.01718403398990631
31	0x3fcc18f0a0000000	0.21951110661029816
32	0xbfc7dc9be0000000	-0.18641994893550873
33	0xbfc43d7ae0000000	-0.15812622010707855
34	0x3fad5a0500000000	0.05732741951942444
35	0x3fbe987e40000000	0.1195143610239029
36	0xbfa237e820000000	-0.035582784563302994
37	0xbfc04f2300000000	-0.12741506099700928
38	0x3fcb10e6a0000000	0.21145327389240265
39	0xbfb14e9780000000	-0.06760546565055847
40	0xbfb95b3ea0000000	-0.09904853254556656
41	0xbf832bad40000000	-0.009360650554299355
42	0x3f96aaaf40000000	0.022135484963655472
43	0x3fd402a160000000	0.3126605451107025
44	0x3fb9507840000000	0.09888412058353424
45	0x3f906d6820000000	0.016042353585362434
46	0x3fb5def600000000	0.08543336391448975
47	0xbf774e9580000000	-0.0056901779025793076
48	0x3fbac43120000000	0.10455615073442459
49	0xbfce4cdcc0000000	-0.23672065138816833
50	0x3f74e09780000000	0.005096999928355217
51	0x3fc2f41b00000000	0.14807450771331787
52	0x3fc21edba0000000	0.1415667086839676
53	0x3f9de189a0000000	0.02918067015707493
54	0x3fa5171e60000000	0.041192006319761276
55	0xbfc2de10a0000000	-0.14740188419818878
56	0x3fb61eada0000000	0.08640561252832413
57	0x3fc5624f60000000	0.1670626848936081
58	0xbfcd4fc640000000	-0.22899702191352844
59	0x3fb04759e0000000	0.06358873099088669
60	0x3fa36175a0000000	0.0378529317677021
61	0xbfba64eb80000000	-0.1031024158000946
62	0x3f78547c40000000	0.005939946509897709
63	0xbfc2006380000000	-0.1406368613243103
64	0x3fd0eb96e0000000	0.26437923312187195
65	0x3f99c366c0000000	0.025159459561109543
66	0xbfb18970e0000000	-0.06850343197584152
67	0xbfaff1baa0000000	-0.062391120940446854
68	0x3fc1a7bf20000000	0.1379317194223404
69	0xbfa8973880000000	-0.048028722405433655
70	0xbfade1cf40000000	-0.0583634153008461
71	0x3fb6b78f40000000	0.08873839676380157
72	0xbfc8c95400000000	-0.19364404678344727
73	0xbfbf619b80000000	-0.12258312106132507
74	0xbfd3da5920000000	-0.3102019131183624
75	0x3fb6de0400000000	0.0893251895904541
76	0x3fde22bfa0000000	0.47087088227272034
77	0x3fb51ce900000000	0.08247238397598267
78	0xbfcad8a860000000	-0.2097368687391281
79	0x3f935fbc40000000	0.018919888883829117
80	0xbfa9d81340000000	-0.05047664791345596
81	0x3fa2ef1ee0000000	0.03698059543967247
82	0x3fa2772280000000	0.036065176129341125
83	0x3f5c5e9180000000	0.0017315312288701534
84	0xbfb1975ec0000000	-0.06871597468852997
85	0xbfaf5dd0a0000000	-0.06126262620091438
86	0xbfcb5b6880000000	-0.21372705698013306
87	0x3f84fc0440000000	0.010246308520436287
88	0x3fc6c5eec0000000	0.17791542410850525
89	0xbfb2c8e780000000	-0.0733780562877655
90	0xbfb1825060000000	-0.06839468330144882
91	0x3fc24b5c80000000	0.14292484521865845
92	0xbf45869800000000	-0.0006569139659404755
93	0x3f9b301a80000000	0.026550687849521637
94	0x3fae7f0300000000	0.05956277251243591
95	0x3faa71eb60000000	0.051650386303663254
96	0xbfb10838e0000000	-0.0665317103266716
97	0x3f92e53340000000	0.01845245435833931
98	0xbfb46644e0000000	-0.0796855017542839
99	0x3f903f7200000000	0.015867024660110474
100	0x3fbdd6bbe0000000	0.11655782908201218
101	0xbfc5025a60000000	-0.16413430869579315
102	0xbf869f2780000000	-0.011045750230550766
103	0x3fb9428080000000	0.09867098927497864
104	0xbfc789aae0000000	-0.183888778090477
105	0x3fb4ec9980000000	0.08173522353172302
106	0xbfa4641ac0000000	-0.03982623666524887
107	0x3f87b7a360000000	0.01158073078840971
108	0xbf92916140000000	-0.018132705241441727
109	0xbfb8708080000000	-0.09546664357185364
110	0xbfba109060000000	-0.10181524604558945
111	0x3fabfc44a0000000	0.054659027606248856
112	0x3fc5efd480000000	0.17138153314590454
113	0xbfd695bf80000000	-0.35288989543914795
114	0x3fcce19cc0000000	0.22563514113426208
115	0x3fc47aa5e0000000	0.15999291837215424
116	0xbfa2bccf40000000	-0.03659675270318985
117	0x3fc01f0e00000000	0.1259477138519287
118	0xbf66bd5240000000	-0.002775822300463915
119	0x3faa2faf80000000	0.05114506185054779
120	0xbfaca30ba0000000	-0.05593143776059151
121	0xbfaf35dfc0000000	-0.0609579011797905
122	0xbfbc3a5480000000	-0.11026504635810852
123	0xbfc400b080000000	-0.1562710404396057
124	0x3fc1528b20000000	0.13533152639865875
125	0xbf9d505d00000000	-0.028626874089241028
126	0x3f9f9f7e00000000	0.0308818519115448
127	0x3fa173ab40000000	0.03408560901880264
