FACE_REC_3/data/embeddings/011_b2354fd0.npy (npy, 1152 bytes, 1 tensors)

array f8 [128]
-0.22387376427650452 0.1639394313097 0.13858501613140106 -0.07577483355998993 -0.261584997177124 -0.04202446714043617 -0.11268217861652374 -0.19525942206382751
0.12412718683481216 -0.07876668870449066 0.14150190353393555 -0.04249865934252739 -0.3028005361557007 0.10202210396528244 -0.1371297687292099 0.16364766657352448
-0.17481842637062073 -0.15640756487846375 -0.07309318333864212 -0.06359785050153732 0.029679255560040474 -0.00914003700017929 0.06114300340414047 0.18508882820606232
-0.054694436490535736 -0.3254929780960083 -0.07320715487003326 -0.02729043737053871 -0.0493089035153389 -0.12919893860816956 0.030484654009342194 0.024742620065808296
-0.26009315252304077 -0.05721891671419144 -0.047080378979444504 0.10032376646995544 0.010841810144484043 -0.15455198287963867 0.11312124133110046 -0.015420484356582165
-0.19137132167816162 -0.07357582449913025 0.09628961235284805 0.26428142189979553 0.2258533090353012 0.060997240245342255 0.04406048730015755 -0.08969017118215561
0.13567672669887543 -0.26049456000328064 0.059501416981220245 0.16894963383674622 0.005710011813789606 0.013592509552836418 0.04468861222267151 -0.22011317312717438
0.04797946661710739 0.06707111746072769 -0.11948192119598389 0.09048476070165634 0.15056608617305756 -0.05372985079884529 0.022989843040704727 -0.1532742828130722
0.2980470657348633 0.12366758286952972 -0.11624392122030258 -0.08441794663667679 0.20805437862873077 -0.16554193198680878 -0.04460520297288895 -0.0031795725226402283
-0.15808546543121338 -0.16601401567459106 -0.25002649426460266 0.014280050061643124 0.4818955063819885 0.18061518669128418 -0.13543207943439484 0.03930136561393738
-0.11158579587936401 -0.018035218119621277 -0.07474811375141144 0.2011292725801468 -0.032459087669849396 0.06670147180557251 -0.0832606703042984 0.07864274829626083
0.2033739686012268 0.037151552736759186 0.013403326272964478 0.3741488754749298 0.03682403266429901 -0.07377965748310089 0.09245637059211731 0.06806568056344986
-0.17033430933952332 -0.010887466371059418 -0.1419907808303833 0.010959034785628319 -0.05336405709385872 -0.08122561126947403 0.022574469447135925 0.058281127363443375
-0.1374989002943039 0.10906966030597687 -0.05609002709388733 0.05280124023556709 -0.07634866237640381 -0.010786867700517178 -0.13979563117027283 -0.10465016961097717
0.18925723433494568 -0.2081594318151474 0.1564164161682129 0.13469484448432922 0.06176655367016792 0.1609196960926056 0.05579734593629837 0.20366492867469788
0.07301124930381775 0.006509098224341869 -0.020367493852972984 -0.0663272812962532 0.05568115413188934 -0.1275184452533722 0.055498622357845306 0.12437725812196732
00000000: 0000 0040 e5a7 ccbf 0000 00a0 f7fb c43f
00000010: 0000 0060 27bd c13f 0000 00c0 fa65 b3bf
00000020: 0000 0000 cfbd d0bf 0000 0020 3b84 a5bf
00000030: 0000 0040 bdd8 bcbf 0000 00c0 42fe c8bf
00000040: 0000 00a0 ccc6 bf3f 0000 00c0 0d2a b4bf
00000050: 0000 0000 bc1c c23f 0000 0060 62c2 a5bf
00000060: 0000 0080 1561 d3bf 0000 00e0 1e1e ba3f
00000070: 0000 00e0 778d c1bf 0000 0020 68f2 c43f
00000080: 0000 0040 7360 c6bf 0000 00c0 2905 c4bf
00000090: 0000 0020 3cb6 b2bf 0000 00e0 f247 b0bf
000000a0: 0000 0020 3d64 9e3f 0000 0000 03b8 82bf
000000b0: 0000 00c0 224e af3f 0000 00a0 fdb0 c73f
000000c0: 0000 00c0 e800 acbf 0000 0080 e0d4 d4bf
000000d0: 0000 0040 b4bd b2bf 0000 0040 06f2 9bbf
000000e0: 0000 0040 043f a9bf 0000 0040 9789 c0bf
000000f0: 0000 0080 5e37 9f3f 0000 0020 2156 993f
00000100: 0000 00c0 5da5 d0bf 0000 0040 cc4b adbf
00000110: 0000 0060 eb1a a8bf 0000 0080 d1ae b93f
00000120: 0000 0020 3b34 863f 0000 0000 5cc8 c3bf
00000130: 0000 0080 83f5 bc3f 0000 0060 c694 8fbf
00000140: 0000 0000 db7e c8bf 0000 0080 ddd5 b2bf
00000150: 0000 00a0 6fa6 b83f 0000 00a0 fce9 d03f
00000160: 0000 00e0 c2e8 cc3f 0000 00c0 073b af3f
00000170: 0000 00a0 188f a63f 0000 0060 eff5 b6bf
00000180: 0000 00e0 da5d c13f 0000 0060 f1ab d0bf
00000190: 0000 0040 f876 ae3f 0000 0040 24a0 c53f
000001a0: 0000 00a0 6163 773f 0000 00c0 63d6 8b3f
000001b0: 0000 0000 6de1 a63f 0000 0020 ab2c ccbf
000001c0: 0000 00c0 c390 a83f 0000 00a0 922b b13f
000001d0: 0000 0000 5e96 bebf 0000 0060 022a b73f
000001e0: 0000 00e0 bf45 c33f 0000 00a0 7a82 abbf
000001f0: 0000 0040 a68a 973f 0000 00e0 7d9e c3bf
00000200: 0000 0000 3413 d33f 0000 00c0 ada8 bf3f
00000210: 0000 0060 29c2 bdbf 0000 0020 6a9c b5bf
00000220: 0000 00a0 86a1 ca3f 0000 0060 7a30 c5bf
00000230: 0000 0040 7ed6 a6bf 0000 0000 0c0c 6abf
00000240: 0000 0000 253c c4bf 0000 0080 f23f c5bf
00000250: 0000 0020 6f00 d0bf 0000 00e0 db3e 8d3f
00000260: 0000 0040 60d7 de3f 0000 0000 661e c73f
00000270: 0000 00a0 d655 c1bf 0000 0000 4f1f a43f
00000280: 0000 0000 e390 bcbf 0000 0000 d377 92bf
00000290: 0000 0040 b122 b3bf 0000 00a0 9abe c93f
000002a0: 0000 0040 7a9e a0bf 0000 0000 5913 b13f
000002b0: 0000 0040 9250 b5bf 0000 0060 ee21 b43f
000002c0: 0000 0080 2808 ca3f 0000 0040 8705 a33f
000002d0: 0000 0000 3473 8b3f 0000 0020 0ef2 d73f
000002e0: 0000 0080 99da a23f 0000 0040 39e3 b2bf
000002f0: 0000 0080 38ab b73f 0000 00a0 c06c b13f
00000300: 0000 00c0 83cd c5bf 0000 0000 2b4c 86bf
00000310: 0000 0000 c12c c2bf 0000 00c0 b071 863f
00000320: 0000 00a0 8852 abbf 0000 00a0 33cb b4bf
00000330: 0000 0000 c31d 973f 0000 0020 06d7 ad3f
00000340: 0000 0060 9099 c1bf 0000 0040 fdeb bb3f
00000350: 0000 0000 d5b7 acbf 0000 00a0 c308 ab3f
00000360: 0000 0000 968b b3bf 0000 00e0 6c17 86bf
00000370: 0000 00c0 d2e4 c1bf 0000 0080 5aca babf
00000380: 0000 00c0 9439 c83f 0000 00e0 f7a4 cabf
00000390: 0000 0000 7405 c43f 0000 0040 ae3d c13f
000003a0: 0000 00a0 dd9f af3f 0000 0040 0499 c43f
000003b0: 0000 0040 7891 ac3f 0000 0040 b111 ca3f
000003c0: 0000 0080 ddb0 b23f 0000 00c0 48a9 7a3f
000003d0: 0000 0060 37db 94bf 0000 0020 d3fa b0bf
000003e0: 0000 0080 3d82 ac3f 0000 0040 8652 c0bf
000003f0: 0000 00c0 506a ac3f 0000 0020 30d7 bf3f
