FACE_REC_3/data/embeddings/013_b87334b3.npy (npy, 1152 bytes, 1 tensors)

array f8 [128]
-0.023727644234895706 0.15645433962345123 0.13705596327781677 -0.04670526832342148 -0.03206383064389229 -0.07446538656949997 0.026227116584777832 -0.14600121974945068
0.1515878587961197 -0.07748700678348541 0.23998399078845978 -0.013536078855395317 -0.33721524477005005 -0.044553715735673904 -0.0037829410284757614 0.07858538627624512
-0.10151100903749466 -0.08553698658943176 -0.10420749336481094 -0.1310686320066452 0.022413255646824837 0.08171873539686203 -0.00838486198335886 0.000962529331445694
-0.03922582045197487 -0.2589757740497589 -0.12429682165384293 -0.012258948758244514 -0.0011621275916695595 -0.0735820010304451 0.05348266288638115 0.02872106432914734
-0.11102119088172913 -0.10458289086818695 0.07028885930776596 0.03954821452498436 -0.08386742323637009 -0.07842782139778137 0.21467001736164093 0.0435277484357357
-0.10188459604978561 0.038747936487197876 0.03245023265480995 0.29546862840652466 0.1546616107225418 0.06445083767175674 0.014285380020737648 -0.12347835302352905
0.06592333316802979 -0.25992605090141296 0.06040821969509125 0.17896245419979095 0.10315243154764175 0.07001379877328873 0.09955595433712006 -0.22186580300331116
-0.02147599495947361 0.1360759437084198 -0.23780450224876404 0.10676934570074081 0.072626993060112 -0.21380434930324554 -0.020812276750802994 -0.040923722088336945
0.189969003200531 0.10343562066555023 -0.16916732490062714 -0.1276404857635498 0.13504569232463837 -0.19095228612422943 -0.1003909781575203 0.06807143986225128
-0.07338111847639084 -0.13841435313224792 -0.318755567073822 0.0954204723238945 0.44688886404037476 0.15386241674423218 -0.2153882533311844 -0.04148908704519272
-0.13121344149112701 0.011210178956389427 0.08011851459741592 0.0946870967745781 -0.07845835387706757 -0.08377418667078018 -0.10772666335105896 -0.06782882660627365
0.14830653369426727 0.0006523262709379196 -0.1506693959236145 0.22823762893676758 -0.0041501689702272415 0.050301484763622284 0.04179391264915466 0.022556163370609283
-0.1391451209783554 -0.07986152917146683 -0.13537022471427917 -0.05904668569564819 -0.020328084006905556 -0.15225137770175934 -0.006264145951718092 0.12669984996318817
-0.1840571016073227 0.1569080948829651 -0.0003102305345237255 -0.08132750540971756 -0.034109655767679214 -0.00014881696552038193 -0.1085171028971672 -0.013227335177361965
0.18613210320472717 -0.34964388608932495 0.23025012016296387 0.20740367472171783 0.01854112185537815 0.19022268056869507 0.08341202139854431 0.09048589318990707
0.003551030531525612 -0.05505728721618652 -0.04754173755645752 -0.15627600252628326 -0.017198754474520683 0.06191219016909599 0.11671440303325653 0.013701696880161762
00000000: 0000 0040 0f4c 98bf 0000 0020 b206 c43f
00000010: 0000 00c0 0c8b c13f 0000 00c0 c0e9 a7bf
00000020: 0000 00a0 ab6a a0bf 0000 00e0 2910 b3bf
00000030: 0000 0000 48db 9a3f 0000 0000 2bb0 c2bf
00000040: 0000 0020 3b67 c33f 0000 0040 30d6 b3bf
00000050: 0000 00a0 cbb7 ce3f 0000 00c0 cdb8 8bbf
00000060: 0000 0040 ef94 d5bf 0000 00a0 becf a6bf
00000070: 0000 0000 67fd 6ebf 0000 0000 2c1e b43f
00000080: 0000 0020 a0fc b9bf 0000 0080 c0e5 b5bf
00000090: 0000 00a0 57ad babf 0000 0060 dbc6 c0bf
000000a0: 0000 0020 80f3 963f 0000 00e0 84eb b43f
000000b0: 0000 0020 152c 81bf 0000 0000 488a 4f3f
000000c0: 0000 0020 6815 a4bf 0000 0020 0f93 d0bf
000000d0: 0000 00a0 ead1 bfbf 0000 0040 381b 89bf
000000e0: 0000 0000 510a 53bf 0000 0020 45d6 b2bf
000000f0: 0000 0060 1462 ab3f 0000 0000 0e69 9d3f
00000100: 0000 0080 e26b bcbf 0000 00c0 f1c5 babf
00000110: 0000 0060 73fe b13f 0000 00e0 a93f a43f
00000120: 0000 00e0 5578 b5bf 0000 0080 d813 b4bf
00000130: 0000 00a0 4e7a cb3f 0000 00e0 4449 a63f
00000140: 0000 00e0 1b15 babf 0000 0000 c5d6 a33f
00000150: 0000 0020 519d a03f 0000 0040 f5e8 d23f
00000160: 0000 00a0 f3cb c33f 0000 00a0 d97f b03f
00000170: 0000 0040 a741 8d3f 0000 0000 479c bfbf
00000180: 0000 0000 5ae0 b03f 0000 00e0 a0a2 d0bf
00000190: 0000 0080 d3ed ae3f 0000 00e0 3de8 c63f
000001a0: 0000 00a0 3268 ba3f 0000 00a0 6cec b13f
000001b0: 0000 00c0 7f7c b93f 0000 0040 1966 ccbf
000001c0: 0000 00a0 cdfd 95bf 0000 00c0 ef6a c13f
000001d0: 0000 00c0 6070 cebf 0000 0060 3c55 bb3f
000001e0: 0000 00c0 ae97 b23f 0000 00e0 f05d cbbf
000001f0: 0000 0040 d04f 95bf 0000 0040 f4f3 a4bf
00000200: 0000 0080 e750 c83f 0000 00c0 c17a ba3f
00000210: 0000 0060 46a7 c5bf 0000 0000 8656 c0bf
00000220: 0000 0060 2d49 c13f 0000 00e0 1f71 c8bf
00000230: 0000 0020 39b3 b9bf 0000 0040 216d b13f
00000240: 0000 00e0 1ac9 b2bf 0000 00c0 8fb7 c1bf
00000250: 0000 00c0 7d66 d4bf 0000 00e0 796d b83f
00000260: 0000 00c0 d399 dc3f 0000 0080 c3b1 c33f
00000270: 0000 00a0 d791 cbbf 0000 00c0 0e3e a5bf
00000280: 0000 0020 9acb c0bf 0000 00c0 5cf5 863f
00000290: 0000 00a0 a582 b43f 0000 00e0 693d b83f
000002a0: 0000 00c0 d815 b4bf 0000 00a0 3972 b5bf
000002b0: 0000 0080 f993 bbbf 0000 00e0 3a5d b1bf
000002c0: 0000 0060 b5fb c23f 0000 0000 1c60 453f
000002d0: 0000 0080 2249 c3bf 0000 0000 e436 cd3f
000002e0: 0000 0080 c4ff 70bf 0000 00c0 1dc1 a93f
000002f0: 0000 0000 0366 a53f 0000 0080 f618 973f
00000300: 0000 00e0 81cf c1bf 0000 0020 ce71 b4bf
00000310: 0000 00c0 cf53 c1bf 0000 0000 5e3b aebf
00000320: 0000 00a0 e2d0 94bf 0000 0020 f97c c3bf
00000330: 0000 00e0 6ea8 79bf 0000 0060 b337 c03f
00000340: 0000 00e0 2e8f c7bf 0000 0080 9015 c43f
00000350: 0000 0000 ce54 34bf 0000 0020 e1d1 b4bf
00000360: 0000 0020 d276 a1bf 0000 0000 7881 23bf
00000370: 0000 00e0 c6c7 bbbf 0000 00e0 ee16 8bbf
00000380: 0000 0040 2dd3 c73f 0000 00c0 9060 d6bf
00000390: 0000 0000 d678 cd3f 0000 0020 348c ca3f
000003a0: 0000 00a0 71fc 923f 0000 0080 3759 c83f
000003b0: 0000 0080 7d5a b53f 0000 0060 152a b73f
000003c0: 0000 0000 0d17 6d3f 0000 0000 7830 acbf
000003d0: 0000 0000 6457 a8bf 0000 0020 da00 c4bf
000003e0: 0000 00e0 8c9c 91bf 0000 0060 f4b2 af3f
000003f0: 0000 00c0 fee0 bd3f 0000 00a0 a20f 8c3f
