FACE_REC_3/data/embeddings/016_b170ab55.npy (npy, 1152 bytes, 1 tensors)

array f8 [128]
-0.16120323538780212 0.1128617525100708 0.132446750998497 -0.052495379000902176 -0.19323083758354187 0.020814254879951477 -0.0023966506123542786 -0.11212531477212906
0.21155698597431183 -0.11537232249975204 0.14296039938926697 -0.11690621078014374 -0.24610033631324768 0.061739303171634674 -0.10314806550741196 0.1496899276971817
-0.1359155923128128 -0.21166780591011047 -0.04244052618741989 -0.12914612889289856 0.17338299751281738 -0.003910901956260204 -0.0598486065864563 0.08514739573001862
-0.28932225704193115 -0.2350136786699295 -0.049288421869277954 -0.03968532755970955 0.009015381336212158 -0.0998273566365242 0.009200072847306728 0.15971563756465912
-0.21977920830249786 0.045784637331962585 -0.04574468731880188 0.2378934621810913 -0.044046152383089066 -0.1835484653711319 0.13300244510173798 0.026503652334213257
-0.22835062444210052 0.034505270421504974 0.056837037205696106 0.23855629563331604 0.21268795430660248 -0.0026725558564066887 0.03269670158624649 -0.06828363239765167
0.1588606834411621 -0.31105518341064453 0.028375161811709404 0.24902956187725067 0.07392079383134842 0.10780495405197144 0.08192630857229233 -0.2300935536623001
0.04373420029878616 0.08464092761278152 -0.17054472863674164 0.010347122326493263 0.08860817551612854 -0.15425553917884827 0.0219852514564991 -0.1727464348077774
0.1587797999382019 0.15409226715564728 -0.0456983856856823 -0.09422233700752258 0.2672697901725769 -0.14011099934577942 -0.05397026985883713 0.12010865658521652
-0.15009750425815582 -0.1684446483850479 -0.18671682476997375 0.05195945128798485 0.4081679582595825 0.188105046749115 -0.08265919238328934 0.10683748871088028
-0.05520904064178467 0.043403223156929016 -0.03958359360694885 0.11684443801641464 -0.0032050367444753647 0.007098626345396042 -0.11450131237506866 0.08827801048755646
0.24721191823482513 -0.0675806999206543 0.05711699649691582 0.2657105326652527 0.05647043138742447 -0.09241984039545059 0.002377903088927269 -0.026582058519124985
-0.14585435390472412 0.04070555046200752 -0.05087019503116608 -0.027951208874583244 -0.0034567760303616524 -0.0961742103099823 -0.013196313753724098 0.03835063427686691
-0.2157939374446869 0.14968377351760864 -0.048172008246183395 -0.025038570165634155 -0.11170914769172668 -0.12569038569927216 -0.0564035028219223 0.09970631450414658
0.18023806810379028 -0.2998983860015869 0.16903364658355713 0.12815451622009277 -0.011047353968024254 0.1936408281326294 0.0635693222284317 0.15064990520477295
0.038901716470718384 -0.08269129693508148 -0.12293741106987 -0.0860094502568245 0.05603354796767235 -0.06647856533527374 -0.027666911482810974 0.09724485129117966
00000000: 0000 00c0 4ea2 c4bf 0000 0000 82e4 bc3f
00000010: 0000 00e0 03f4 c03f 0000 00a0 ace0 aabf
00000020: 0000 00c0 c9bb c8bf 0000 0000 5550 953f
00000030: 0000 0000 24a2 63bf 0000 00a0 3eb4 bcbf
00000040: 0000 00a0 4c14 cb3f 0000 0060 0a89 bdbf
00000050: 0000 00c0 864c c23f 0000 00c0 90ed bdbf
00000060: 0000 0040 3780 cfbf 0000 0040 4b9c af3f
00000070: 0000 0060 e967 babf 0000 0020 0a29 c33f
00000080: 0000 00a0 ae65 c1bf 0000 0040 ee17 cbbf
00000090: 0000 00c0 c3ba a5bf 0000 0040 dc87 c0bf
000000a0: 0000 0000 6a31 c63f 0000 00c0 e004 70bf
000000b0: 0000 0000 7aa4 aebf 0000 0040 38cc b53f
000000c0: 0000 0080 4184 d2bf 0000 00a0 ed14 cebf
000000d0: 0000 0000 553c a9bf 0000 00a0 a251 a4bf
000000e0: 0000 0000 a876 823f 0000 0020 498e b9bf
000000f0: 0000 00e0 7cd7 823f 0000 00e0 8f71 c43f
00000100: 0000 00a0 b921 ccbf 0000 0080 1571 a73f
00000110: 0000 0000 d96b a7bf 0000 0000 4b73 ce3f
00000120: 0000 00a0 378d a6bf 0000 0020 847e c7bf
00000130: 0000 0060 3906 c13f 0000 0000 c623 9b3f
00000140: 0000 00e0 973a cdbf 0000 00c0 acaa a13f
00000150: 0000 0080 be19 ad3f 0000 0040 0389 ce3f
00000160: 0000 00e0 5b39 cb3f 0000 0080 c1e4 65bf
00000170: 0000 0040 9fbd a03f 0000 0040 097b b1bf
00000180: 0000 0000 8c55 c43f 0000 0000 54e8 d3bf
00000190: 0000 00e0 600e 9d3f 0000 0060 33e0 cf3f
000001a0: 0000 0020 79ec b23f 0000 0000 1b99 bb3f
000001b0: 0000 0060 1ff9 b43f 0000 00a0 b473 cdbf
000001c0: 0000 0040 5464 a63f 0000 0020 07ab b53f
000001d0: 0000 00e0 68d4 c5bf 0000 0040 df30 853f
000001e0: 0000 0080 06af b63f 0000 0040 a5be c3bf
000001f0: 0000 0040 4d83 963f 0000 0020 8e1c c6bf
00000200: 0000 0080 e552 c43f 0000 00a0 4bb9 c33f
00000210: 0000 0060 c765 a7bf 0000 0080 f41e b8bf
00000220: 0000 00c0 f21a d13f 0000 0040 28ef c1bf
00000230: 0000 00c0 fda1 abbf 0000 00e0 70bf be3f
00000240: 0000 0020 6536 c3bf 0000 0020 988f c5bf
00000250: 0000 0040 56e6 c7bf 0000 00e0 6d9a aa3f
00000260: 0000 0080 6c1f da3f 0000 0080 d313 c83f
00000270: 0000 0020 2729 b5bf 0000 00a0 b359 bb3f
00000280: 0000 0000 5c44 acbf 0000 0080 f238 a63f
00000290: 0000 0000 4d44 a4bf 0000 0060 84e9 bd3f
000002a0: 0000 0000 7341 6abf 0000 0000 7313 7d3f
000002b0: 0000 0040 f54f bdbf 0000 0040 6399 b63f
000002c0: 0000 00e0 a3a4 cf3f 0000 0000 f84c b1bf
000002d0: 0000 0060 703e ad3f 0000 00c0 6601 d13f
000002e0: 0000 0040 b1e9 ac3f 0000 00a0 d3a8 b7bf
000002f0: 0000 0000 d37a 633f 0000 00c0 5338 9bbf
00000300: 0000 0000 5bab c2bf 0000 00a0 5bd7 a43f
00000310: 0000 0080 a80b aabf 0000 00e0 3d9f 9cbf
00000320: 0000 0080 6251 6cbf 0000 0080 df9e b8bf
00000330: 0000 0040 ab06 8bbf 0000 00c0 b1a2 a33f
00000340: 0000 00c0 229f cbbf 0000 0080 d628 c33f
00000350: 0000 0060 00aa a8bf 0000 0000 b6a3 99bf
00000360: 0000 0080 f898 bcbf 0000 0060 9f16 c0bf
00000370: 0000 0080 ebe0 acbf 0000 0060 5a86 b93f
00000380: 0000 0080 0a12 c73f 0000 0000 8931 d3bf
00000390: 0000 0000 e5a2 c53f 0000 0000 5e67 c03f
000003a0: 0000 00c0 fe9f 86bf 0000 0000 39c9 c83f
000003b0: 0000 0040 1446 b03f 0000 0000 7f48 c33f
000003c0: 0000 0000 edea a33f 0000 00c0 412b b5bf
000003d0: 0000 0080 d378 bfbf 0000 0020 b704 b6bf
000003e0: 0000 00e0 6db0 ac3f 0000 0040 bd04 b1bf
000003f0: 0000 0000 b754 9cbf 0000 00e0 09e5 b83f
