FACE_REC_3/data/embeddings/018_b7231fad.npy (npy, 1152 bytes, 1 tensors)

array f8 [128]
-0.016766896471381187 0.10432489216327667 0.00839837547391653 -0.023218102753162384 0.005108719225972891 -0.09733438491821289 0.03694498538970947 -0.16318517923355103
0.14047116041183472 -0.051465582102537155 0.22545261681079865 -0.09260154515504837 -0.3577013611793518 -0.050029315054416656 0.0016783587634563446 0.1170143112540245
-0.18350368738174438 -0.07522932440042496 -0.1414007693529129 -0.12839068472385406 -0.003182049607858062 0.0659550279378891 0.009687483310699463 0.051430873572826385
-0.10856776684522629 -0.2527674436569214 -0.12190815806388855 -0.07779771089553833 0.006841336376965046 -0.08693286776542664 0.049807995557785034 0.07639537751674652
-0.10880595445632935 -0.05813983827829361 0.0648123025894165 -0.018702857196331024 -0.05686688423156738 -0.026796303689479828 0.24574735760688782 0.07901357114315033
-0.1535063087940216 0.02411257103085518 0.02872476354241371 0.29248663783073425 0.21959471702575684 0.08284123241901398 -0.011371027678251266 -0.06833668053150177
0.07741091400384903 -0.2827203571796417 0.06478071212768555 0.1671023815870285 0.15519772469997406 0.04032682627439499 0.09660439938306808 -0.17583051323890686
-0.06676018238067627 0.1743260771036148 -0.19394461810588837 0.08962882310152054 0.09014102816581726 -0.1908624917268753 0.02286231517791748 0.01671486720442772
0.20477616786956787 0.08568669110536575 -0.17132408916950226 -0.06303687393665314 0.17862382531166077 -0.1902477890253067 -0.11843614280223846 0.04867486283183098
-0.04079897329211235 -0.15085197985172272 -0.33360856771469116 0.04827703535556793 0.4051917791366577 0.11652564257383347 -0.21018841862678528 -0.028011158108711243
-0.11221005767583847 -0.00833061896264553 0.08691027760505676 0.0683055892586708 -0.10915091633796692 -0.13113082945346832 -0.12441179156303406 -0.08197210729122162
0.19276809692382812 -0.010654926300048828 -0.09777507930994034 0.2413465976715088 -0.04860856011509895 0.02546430006623268 0.021424368023872375 0.005947430618107319
-0.14731736481189728 -0.08881599456071854 -0.06799720972776413 -0.07265232503414154 0.022831806913018227 -0.09839185327291489 -0.006845788564532995 0.148000106215477
-0.17485621571540833 0.18740400671958923 -0.013985831290483475 -0.05990665405988693 -0.021992141380906105 0.019710201770067215 -0.05430709198117256 0.015713881701231003
0.1672927439212799 -0.31228959560394287 0.21389427781105042 0.1546827256679535 -0.015909310430288315 0.12832245230674744 0.03265446797013283 0.05245416611433029
-0.023937005549669266 -0.02996889501810074 -0.1343795657157898 -0.16569778323173523 0.04972069710493088 0.025111019611358643 0.11464910209178925 0.00922346394509077
00000000: 0000 0060 572b 91bf 0000 0040 09b5 ba3f
00000010: 0000 00e0 2a33 813f 0000 0080 7cc6 97bf
00000020: 0000 0060 e1ec 743f 0000 0000 e8ea b8bf
00000030: 0000 0000 74ea a23f 0000 0080 40e3 c4bf
00000040: 0000 0080 f5fa c13f 0000 0060 b259 aabf
00000050: 0000 00a0 a1db cc3f 0000 0020 bcb4 b7bf
00000060: 0000 0040 94e4 d6bf 0000 0040 719d a9bf
00000070: 0000 0000 8c7f 5b3f 0000 0060 a6f4 bd3f
00000080: 0000 0080 0c7d c7bf 0000 00a0 3a42 b3bf
00000090: 0000 00a0 6b19 c2bf 0000 0020 1b6f c0bf
000000a0: 0000 00e0 3d11 6abf 0000 00c0 6de2 b03f
000000b0: 0000 0000 08d7 833f 0000 00c0 2555 aa3f
000000c0: 0000 00e0 18cb bbbf 0000 0080 572d d0bf
000000d0: 0000 0080 5f35 bfbf 0000 0000 8dea b3bf
000000e0: 0000 0040 a905 7c3f 0000 0080 3b41 b6bf
000000f0: 0000 0000 6f80 a93f 0000 00c0 a58e b33f
00000100: 0000 0000 b5da bbbf 0000 0040 81c4 adbf
00000110: 0000 0000 8a97 b03f 0000 0080 d726 93bf
00000120: 0000 0000 a81d adbf 0000 0080 7d70 9bbf
00000130: 0000 0040 a674 cf3f 0000 00c0 3b3a b43f
00000140: 0000 0040 18a6 c3bf 0000 0040 f7b0 983f
00000150: 0000 0040 066a 9d3f 0000 00e0 19b8 d23f
00000160: 0000 0000 ae1b cc3f 0000 0040 1535 b53f
00000170: 0000 0080 b149 87bf 0000 0040 837e b1bf
00000180: 0000 00a0 33d1 b33f 0000 0020 1718 d2bf
00000190: 0000 0000 7895 b03f 0000 0060 9c63 c53f
000001a0: 0000 00e0 84dd c33f 0000 00c0 b7a5 a43f
000001b0: 0000 00e0 10bb b83f 0000 0040 9d81 c6bf
000001c0: 0000 0000 3217 b1bf 0000 0020 5150 c63f
000001d0: 0000 0060 2dd3 c8bf 0000 0020 eaf1 b63f
000001e0: 0000 0080 7b13 b73f 0000 00a0 2e6e c8bf
000001f0: 0000 0000 3869 973f 0000 00c0 b31d 913f
00000200: 0000 0000 1b36 ca3f 0000 0020 90ef b53f
00000210: 0000 00a0 f2ed c5bf 0000 0040 2f23 b0bf
00000220: 0000 0040 25dd c63f 0000 0020 0a5a c8bf
00000230: 0000 00c0 d451 bebf 0000 0060 e9eb a83f
00000240: 0000 0060 9ae3 a4bf 0000 0020 1e4f c3bf
00000250: 0000 00c0 d759 d5bf 0000 0080 c4b7 a83f
00000260: 0000 0080 a9ee d93f 0000 00e0 9fd4 bd3f
00000270: 0000 0040 74e7 cabf 0000 0000 f5ae 9cbf
00000280: 0000 0060 ccb9 bcbf 0000 00c0 a40f 81bf
00000290: 0000 0080 c03f b63f 0000 00a0 797c b13f
000002a0: 0000 0080 50f1 bbbf 0000 0020 e5c8 c0bf
000002b0: 0000 0080 73d9 bfbf 0000 00c0 1ffc b4bf
000002c0: 0000 0000 a0ac c83f 0000 0000 40d2 85bf
000002d0: 0000 00a0 c907 b9bf 0000 0000 72e4 ce3f
000002e0: 0000 00a0 38e3 a8bf 0000 0040 5013 9a3f
000002f0: 0000 0000 45f0 953f 0000 0040 555c 783f
00000300: 0000 00a0 4bdb c2bf 0000 0020 a5bc b6bf
00000310: 0000 00e0 4368 b1bf 0000 00c0 5799 b2bf
00000320: 0000 00a0 3861 973f 0000 0060 3530 b9bf
00000330: 0000 0060 540a 7cbf 0000 00e0 aaf1 c23f
00000340: 0000 0040 b061 c6bf 0000 00c0 dafc c73f
00000350: 0000 0080 9aa4 8cbf 0000 00c0 15ac aebf
00000360: 0000 00a0 1b85 96bf 0000 0040 e92e 943f
00000370: 0000 00a0 23ce abbf 0000 00c0 4c17 903f
00000380: 0000 0040 d969 c53f 0000 0080 8dfc d3bf
00000390: 0000 0040 e360 cb3f 0000 00c0 a4cc c33f
000003a0: 0000 00c0 874a 90bf 0000 00c0 de6c c03f
000003b0: 0000 0020 16b8 a03f 0000 00c0 45db aa3f
000003c0: 0000 0040 f182 98bf 0000 0080 2ab0 9ebf
000003d0: 0000 0080 5933 c1bf 0000 00c0 9535 c5bf
000003e0: 0000 00c0 fd74 a93f 0000 0000 b4b6 993f
000003f0: 0000 00c0 a459 bd3f 0000 0060 c0e3 823f
