FACE_REC_3/data/embeddings/022_b60724f6.npy (npy, 1152 bytes, 1 tensors)

array f8 [128]
00000000: 0000 0020 3394 babf 0000 0040 f378 b33f
00000010: 0000 00e0 d6c3 9bbf 0000 0080 bd0c b73f
00000020: 0000 0040 7ce6 a63f 0000 0000 7357 90bf
00000030: 0000 0080 18d7 aa3f 0000 00c0 c548 c3bf
00000040: 0000 0000 ab4a c83f 0000 0040 4b17 b6bf
00000050: 0000 0020 6204 c83f 0000 00c0 b2fd adbf
00000060: 0000 0080 f610 ccbf 0000 0020 deff c7bf
00000070: 0000 0080 2c19 b53f 0000 0040 e637 bb3f
00000080: 0000 00c0 8be4 c0bf 0000 00c0 171c b1bf
00000090: 0000 00e0 0b3c c0bf 0000 0080 9791 b4bf
000000a0: 0000 00c0 bb08 703f 0000 0020 10bb 8f3f
000000b0: 0000 00c0 16b6 ad3f 0000 0060 bd7c b13f
000000c0: 0000 0060 b960 b7bf 0000 0040 cbe9 d2bf
000000d0: 0000 0000 c563 bcbf 0000 0080 9f7a c9bf
000000e0: 0000 0000 ce32 ad3f 0000 0060 4ffc c0bf
000000f0: 0000 00a0 5a44 b6bf 0000 0080 e0bd 9a3f
00000100: 0000 0000 8aca c4bf 0000 0060 9283 b7bf
00000110: 0000 0020 1401 7cbf 0000 00c0 d71b a23f
00000120: 0000 0020 abec 79bf 0000 0000 3198 973f
00000130: 0000 0040 490b c53f 0000 0040 8266 a2bf
00000140: 0000 0080 3ca6 babf 0000 0000 881e a5bf
00000150: 0000 0060 63ab a03f 0000 0000 55af d03f
00000160: 0000 0000 7317 d03f 0000 00c0 a81e 853f
00000170: 0000 0060 f653 a6bf 0000 0040 6e32 99bf
00000180: 0000 00c0 a5f2 b63f 0000 0080 77e8 c7bf
00000190: 0000 0000 a8a4 3cbf 0000 00e0 e92b a93f
000001a0: 0000 00c0 ecd1 c23f 0000 0060 d7e0 b13f
000001b0: 0000 0020 382f b13f 0000 0000 72a4 cabf
000001c0: 0000 00e0 5be8 a3bf 0000 00c0 7830 b73f
000001d0: 0000 0000 fe44 c6bf 0000 0060 6878 b03f
000001e0: 0000 00c0 87f9 ac3f 0000 00c0 90f1 babf
000001f0: 0000 00c0 76ba bbbf 0000 00a0 0eaa b43f
00000200: 0000 00e0 77d2 d23f 0000 0020 ea04 bb3f
00000210: 0000 00e0 9b41 c1bf 0000 00a0 2302 bfbf
00000220: 0000 00e0 b08b c43f 0000 00c0 d5fc c8bf
00000230: 0000 0060 803f b43f 0000 00c0 1d1f b83f
00000240: 0000 0040 ca97 b3bf 0000 0000 e78e c5bf
00000250: 0000 00e0 6a70 cbbf 0000 0060 946f a03f
00000260: 0000 0000 a901 d93f 0000 0060 83ac b73f
00000270: 0000 0080 1d12 cfbf 0000 0040 5282 77bf
00000280: 0000 0040 ee94 c8bf 0000 0000 8034 953f
00000290: 0000 0020 6114 b33f 0000 0080 ec85 983f
000002a0: 0000 00c0 8353 b3bf 0000 0000 7e0b 7f3f
000002b0: 0000 0080 e09a c1bf 0000 0000 c43d a2bf
000002c0: 0000 00c0 5612 c03f 0000 0080 3120 9f3f
000002d0: 0000 0000 5011 853f 0000 0080 2d68 cb3f
000002e0: 0000 0040 aa5b 96bf 0000 0080 6b98 94bf
000002f0: 0000 0060 6711 b23f 0000 00a0 9ca4 abbf
00000300: 0000 00c0 c21f b6bf 0000 0080 25a3 b5bf
00000310: 0000 0060 32c1 c0bf 0000 0080 7c2e b5bf
00000320: 0000 0060 0d09 84bf 0000 0060 0bb0 c5bf
00000330: 0000 00c0 9e1b 5abf 0000 0080 cb4c af3f
00000340: 0000 00a0 241f c9bf 0000 00a0 eb78 ca3f
00000350: 0000 0040 2968 a73f 0000 0000 ecc4 923f
00000360: 0000 0040 28db 8d3f 0000 0000 0304 96bf
00000370: 0000 00e0 c317 b5bf 0000 0020 ad1b a73f
00000380: 0000 00a0 17b1 c73f 0000 0040 b798 d4bf
00000390: 0000 00c0 f7fe c43f 0000 0080 6dc3 b73f
000003a0: 0000 00e0 c925 963f 0000 0000 b5ba c73f
000003b0: 0000 00c0 4a75 a3bf 0000 0000 814e c33f
000003c0: 0000 0060 4f68 b7bf 0000 00a0 ba58 7b3f
000003d0: 0000 00c0 efaa c6bf 0000 00c0 9015 99bf
000003e0: 0000 0000 908a a63f 0000 00a0 635f aebf
000003f0: 0000 00e0 a773 b03f 0000 0060 f70d 77bf
-0.10382384806871414 0.07606430351734161 -0.027114255353808403 0.09003815054893494 0.04472721368074417 -0.015958592295646667 0.05242229998111725 -0.15065833926200867
0.18977868556976318 -0.08629293739795685 0.18763376772403717 -0.05857618898153305 -0.21926766633987427 -0.18749596178531647 0.082415372133255 0.10632170736789703
-0.13197466731071472 -0.06683491170406342 -0.12683247029781342 -0.08034655451774597 0.003914578817784786 0.015493513084948063 0.05802985280752182 0.06830962747335434
-0.09131964296102524 -0.2955196499824524 -0.11089736223220825 -0.19905465841293335 0.057028234004974365 -0.1326998919248581 -0.08698049932718277 0.026114948093891144
-0.162431001663208 -0.0918513759970665 -0.006836966145783663 0.035368673503398895 -0.006329220253974199 0.0230415016412735 0.1644069254398346 -0.0359383299946785
-0.10409906506538391 -0.04124855995178223 0.03255758807063103 0.26070141792297363 0.2514312267303467 0.010312383994460106 -0.04360933229327202 -0.02460644021630287
0.08964000642299652 -0.18678182363510132 -0.0004370603710412979 0.04916315898299217 0.14703139662742615 0.0698370561003685 0.06712675839662552 -0.2081434726715088
-0.03888213261961937 0.09058336913585663 -0.1739804744720459 0.06433727592229843 0.05659126490354538 -0.10524849593639374 -0.10831396281719208 0.08071986585855484
0.2940959632396698 0.10554374009370804 -0.13481472432613373 -0.12112639099359512 0.1605130285024643 -0.19521591067314148 0.07909395545721054 0.09422479569911957
-0.07653488218784332 -0.16842353343963623 -0.21436820924282074 0.032101284712553024 0.39072632789611816 0.09247609227895737 -0.24274033308029175 -0.005739518441259861
-0.19204500317573547 0.020708084106445312 0.07452971488237381 0.02394837886095047 -0.07549308240413666 0.007579319179058075 -0.13753896951675415 -0.03562748432159424
0.12555965781211853 0.030396245419979095 0.010286927223205566 0.21411675214767456 -0.021834049373865128 -0.02011268585920334 0.07057806104421616 -0.05399026349186897
-0.08642213046550751 -0.08452066779136658 -0.13089589774608612 -0.08274057507514954 -0.009782890789210796 -0.16943494975566864 -0.0015934992115944624 0.061132773756980896
-0.1962629109621048 0.2068151980638504 0.04571656137704849 0.018329322338104248 0.014578165486454964 -0.02149967849254608 -0.08239387720823288 0.04513302817940712
0.18509192764759064 -0.32182103395462036 0.1640309989452362 0.0928257405757904 0.021628526970744133 0.1853853464126587 -0.03800424188375473 0.15083324909210205
-0.09143539518117905 0.0066764154471457005 -0.1770915687084198 -0.024496328085660934 0.04402589797973633 -0.059321511536836624 0.06426476687192917 -0.005628553684800863
