FACE_REC_3/data/embeddings/023_b70934ce.npy (npy, 1152 bytes, 1 tensors)

array f8 [128]
0	0xbfc477b2c0000000	-0.1599029004573822
1	0x3fba1bf9a0000000	0.10198936611413956
2	0x3fc02b8e20000000	0.1263291984796524
3	0xbfc2896e60000000	-0.14481906592845917
4	0xbfcb04d680000000	-0.21108514070510864
5	0x3fb1255720000000	0.06697601824998856
6	0xbf77f28c80000000	-0.005846546962857246
7	0xbfb16227c0000000	-0.06790398061275482
8	0x3fcebdd440000000	0.24016812443733215
9	0xbfc4b7eca0000000	-0.16186292469501495
10	0x3fb972c520000000	0.09940750151872635
11	0xbfa8a3a2a0000000	-0.04812343791127205
12	0xbfd54ca9a0000000	-0.3328041136264801
13	0x3fa5cef0e0000000	0.042594458907842636
14	0xbfb225a680000000	-0.0708869993686676
15	0x3fc505a6e0000000	0.1642349809408188
16	0xbfc3061b00000000	-0.14862382411956787
17	0xbfcd53c040000000	-0.22911837697029114
18	0xbf76567b80000000	-0.0054535698145627975
19	0xbfc14f5b00000000	-0.13523423671722412
20	0x3fb247cee0000000	0.07140820473432541
21	0x3f91491dc0000000	0.016880478709936142
22	0xbf990f8860000000	-0.024473315104842186
23	0x3fb25240a0000000	0.07156757265329361
24	0xbfcad69fe0000000	-0.20967482030391693
25	0xbfd10a7f80000000	-0.26626574993133545
26	0xbfaff5da60000000	-0.06242258474230766
27	0xbf9ef38040000000	-0.030225757509469986
28	0xbf9541be20000000	-0.020758600905537605
29	0xbfb924ba80000000	-0.09821668267250061
30	0x3fa264ce00000000	0.035925328731536865
31	0x3fbe5fc800000000	0.11864900588989258
32	0xbfc86e8940000000	-0.19087329506874084
33	0x3f98c82e40000000	0.024201128631830215
34	0x3f67b54800000000	0.0028940588235855103
35	0x3fcb107d00000000	0.21144068241119385
36	0xbfa32a98e0000000	-0.03743436560034752
37	0xbfc8f328c0000000	-0.1949206292629242
38	0x3fc5156620000000	0.16471554338932037
39	0x3fa9c2d9a0000000	0.05031471326947212
40	0xbfcacd39c0000000	-0.20938798785209656
41	0xbfabde8e80000000	-0.05443234741687775
42	0x3fb44491c0000000	0.07917128503322601
43	0x3fd087c280000000	0.25828611850738525
44	0x3fc1d0b0c0000000	0.1391812264919281
45	0x3fa4d36300000000	0.04067525267601013
46	0x3fa3cc3620000000	0.038667384535074234
47	0xbfb87b1d40000000	-0.09562857449054718
48	0x3fc1973d60000000	0.13742797076702118
49	0xbfd2b83d40000000	-0.29249507188796997
50	0x3fa900dd00000000	0.04883471131324768
51	0x3fcbee7880000000	0.21821504831314087
52	0x3fafe2e500000000	0.06227794289588928
53	0x3f9c9284c0000000	0.027902673929929733
54	0x3fc2cf1080000000	0.1469441056251526
55	0xbfcb5a8400000000	-0.2136998176574707
56	0x3fb75225c0000000	0.09109722077846527
57	0x3fbb8ee3a0000000	0.107649065554142
58	0xbfc6059a60000000	-0.1720459908246994
59	0x3f9f3c3300000000	0.030503079295158386
60	0x3fb9aef260000000	0.10032572597265244
61	0xbfbf3718e0000000	-0.12193446606397629
62	0x3f9733f4c0000000	0.02265913411974907
63	0xbfc27f9e20000000	-0.14451958239078522
64	0x3fd0dfbb40000000	0.26365548372268677
65	0x3fb8317a80000000	0.09450498223304749
66	0xbfb53b6c80000000	-0.08293798565864563
67	0xbfb7aa98c0000000	-0.09244684875011444
68	0x3fd5d8efa0000000	0.3413657248020172
69	0xbfbc289d40000000	-0.10999472439289093
70	0xbfb5455340000000	-0.08308906853199005
71	0x3fc23453a0000000	0.14222188293933868
72	0xbfbaaf6780000000	-0.10423895716667175
73	0xbfc27d4260000000	-0.14444760978221893
74	0xbfc48f9320000000	-0.16063155233860016
75	0x3f98929780000000	0.023996703326702118
76	0x3fd819e240000000	0.37657982110977173
77	0x3fc9eff8c0000000	0.20263585448265076
78	0xbfbc9c77c0000000	-0.11176250874996185
79	0x3f9db50b80000000	0.029010944068431854
80	0xbfb189cda0000000	-0.06850896030664444
81	0x3f66833b80000000	0.0027481233701109886
82	0xbf81e8bf40000000	-0.008744711056351662
83	0x3fc60162a0000000	0.17191727459430695
84	0xbfa095f3a0000000	-0.03239404037594795
85	0xbfa3b5dc40000000	-0.03849685937166214
86	0xbfbb028ec0000000	-0.10550777614116669
87	0x3f950993e0000000	0.020544348284602165
88	0x3fd1c2fce0000000	0.2775261104106903
89	0xbf74879300000000	-0.005012106150388718
90	0x3f988a8ba0000000	0.02396600879728794
91	0x3fcf1727e0000000	0.24289415776729584
92	0x3fbde3d8c0000000	0.11675791442394257
93	0xbfbcc806c0000000	-0.11242716014385223
94	0x3f83ed4a40000000	0.009729938581585884
95	0xbf85d50840000000	-0.010660232976078987
96	0xbfc4399620000000	-0.1580073982477188
97	0x3f77eb2900000000	0.005839500576257706
98	0xbfc1207fe0000000	-0.1338043063879013
99	0xbfac4a6480000000	-0.05525507032871246
100	0x3f96dec920000000	0.022334234789013863
101	0xbfba9df6c0000000	-0.10397283732891083
102	0xbfb02ba000000000	-0.06316566467285156
103	0x3fbff5d400000000	0.12484478950500488
104	0xbfcf5fa880000000	-0.2451067566871643
105	0x3fbb2942e0000000	0.10609834641218185
106	0xbfabe5c180000000	-0.05448727309703827
107	0xbfc25de5e0000000	-0.14349053800106049
108	0xbfbe54a880000000	-0.11847928166389465
109	0xbfbdd1f480000000	-0.11648491024971008
110	0xbfb1732380000000	-0.06816312670707703
111	0x3fafafafe0000000	0.061887260526418686
112	0x3fc6d75f80000000	0.1784476637840271
113	0xbfd53a2060000000	-0.3316727578639984
114	0x3fc0e97160000000	0.13212411105632782
115	0x3fc615a240000000	0.17253521084785461
116	0x3f96194c40000000	0.021580878645181656
117	0x3fc580aae0000000	0.167989119887352
118	0x3fa620a140000000	0.043217696249485016
119	0x3fbfe7f800000000	0.1246333122253418
120	0x3fb0f7b820000000	0.06627989560365677
121	0xbfc3660340000000	-0.15155068039894104
122	0xbfc01585a0000000	-0.12565679848194122
123	0xbfc530f780000000	-0.16555684804916382
124	0x3fa907e6e0000000	0.04888841137290001
125	0xbfbb8d3dc0000000	-0.10762391984462738
126	0x3f81e8b4c0000000	0.008744632825255394
127	0x3fb2a5d000000000	0.07284259796142578
