FACE_REC_3/data/embeddings/037_b5467841.npy (npy, 1152 bytes, 1 tensors)

array f8 [128]
00000000: 0000 00c0 fcf6 acbf 0000 0080 7939 bc3f
00000010: 0000 0040 5d20 bd3f 0000 0000 30f7 02bf
00000020: 0000 00c0 cb16 c1bf 0000 00c0 a67d a33f
00000030: 0000 00c0 fdaa b1bf 0000 0060 541d 763f
00000040: 0000 0020 a414 bb3f 0000 0080 4118 a0bf
00000050: 0000 00c0 1f40 d13f 0000 0000 fd2f 45bf
00000060: 0000 00a0 2d80 ccbf 0000 0040 caa4 b4bf
00000070: 0000 0020 c7fa bbbf 0000 0080 8a14 b53f
00000080: 0000 0060 d976 bbbf 0000 00a0 f6fa afbf
00000090: 0000 0060 e8b7 a5bf 0000 0000 10c3 973f
000000a0: 0000 00a0 7633 a53f 0000 0020 f392 b13f
000000b0: 0000 0080 0855 a63f 0000 00e0 2d92 a33f
000000c0: 0000 0040 3a24 abbf 0000 0040 ca49 dabf
000000d0: 0000 00c0 000a b4bf 0000 0040 7f70 b4bf
000000e0: 0000 0060 3741 b03f 0000 0060 f43c c2bf
000000f0: 0000 00c0 09ca b6bf 0000 00a0 95ef b33f
00000100: 0000 0000 674e c6bf 0000 0080 4014 bfbf
00000110: 0000 0080 c77a 803f 0000 0040 8150 b33f
00000120: 0000 00e0 24ee bebf 0000 0000 449b b7bf
00000130: 0000 0080 55b7 c13f 0000 0060 5b0b b83f
00000140: 0000 00e0 9214 afbf 0000 0080 daee 9e3f
00000150: 0000 00c0 f949 92bf 0000 0060 8a58 d83f
00000160: 0000 0060 0f62 c63f 0000 00c0 6400 c43f
00000170: 0000 0000 f4bb aa3f 0000 00c0 56ef 95bf
00000180: 0000 0020 a9a0 b13f 0000 00c0 1acc d0bf
00000190: 0000 00c0 bfb8 bb3f 0000 00a0 d088 c43f
000001a0: 0000 0080 5aea bf3f 0000 00a0 335e ba3f
000001b0: 0000 00a0 a13d b63f 0000 00e0 7390 c9bf
000001c0: 0000 0000 5e9d b43f 0000 00c0 7592 bc3f
000001d0: 0000 00c0 1606 cbbf 0000 00c0 e397 b83f
000001e0: 0000 00a0 7a35 933f 0000 0080 4568 b0bf
000001f0: 0000 0040 5829 b13f 0000 0060 1077 b2bf
00000200: 0000 00a0 bf8b d23f 0000 0000 b804 ba3f
00000210: 0000 0060 575b b0bf 0000 0040 a249 b6bf
00000220: 0000 0080 fc30 c33f 0000 0040 bb54 bbbf
00000230: 0000 00c0 fa23 83bf 0000 0040 9774 ac3f
00000240: 0000 0000 c30e bbbf 0000 0000 493c c2bf
00000250: 0000 00a0 5da5 c4bf 0000 0040 855e b13f
00000260: 0000 00a0 a904 d73f 0000 00c0 b57f cd3f
00000270: 0000 00a0 6a0f c6bf 0000 00c0 fcb1 98bf
00000280: 0000 00c0 e3a0 c1bf 0000 0000 5843 94bf
00000290: 0000 0080 98f0 a83f 0000 0040 b4b5 863f
000002a0: 0000 0080 e527 acbf 0000 0080 3b9e afbf
000002b0: 0000 00a0 408a c3bf 0000 0000 14d9 a9bf
000002c0: 0000 0000 a236 c23f 0000 00c0 b1c5 923f
000002d0: 0000 0060 a450 a9bf 0000 0020 3f46 cc3f
000002e0: 0000 00a0 e852 983f 0000 00e0 90c4 adbf
000002f0: 0000 0080 3852 b93f 0000 00e0 e4c4 adbf
00000300: 0000 0060 c551 c4bf 0000 0020 201d ae3f
00000310: 0000 0060 eb49 b7bf 0000 0000 8fad 9dbf
00000320: 0000 00a0 0fa6 a7bf 0000 00a0 7bbb c6bf
00000330: 0000 00c0 8816 9cbf 0000 0040 f307 a63f
00000340: 0000 0060 6eee c7bf 0000 0020 6113 c43f
00000350: 0000 0060 e9a4 9dbf 0000 0000 56e1 893f
00000360: 0000 0060 3627 933f 0000 00e0 4571 b4bf
00000370: 0000 0060 fdab c3bf 0000 0080 e0c8 923f
00000380: 0000 0040 381f c53f 0000 0000 3168 d6bf
00000390: 0000 0020 d9a7 d03f 0000 0000 e2c4 c03f
000003a0: 0000 0000 ec31 bb3f 0000 00c0 f634 cd3f
000003b0: 0000 00e0 feb7 b33f 0000 0040 e11c bb3f
000003c0: 0000 00a0 90cb a2bf 0000 00a0 1c5e b8bf
000003d0: 0000 0000 12fe bbbf 0000 00c0 7320 c0bf
000003e0: 0000 00e0 262a a63f 0000 0080 4eb6 a3bf
000003f0: 0000 0040 d04c b33f 0000 00a0 77a3 a53f
-0.05657186359167099 0.11025199294090271 0.1137750893831253 -3.617396578192711e-05 -0.13350817561149597 0.0380680188536644 -0.06901536881923676 0.005399064626544714
0.10578370839357376 -0.031435057520866394 0.2695388197898865 -0.0006465897895395756 -0.22266168892383575 -0.08063949644565582 -0.1092953160405159 0.08234468102455139
-0.10728224366903305 -0.062461573630571365 -0.04241872951388359 0.023205041885375977 0.04140825942158699 0.06864852458238602 0.043617501854896545 0.038224633783102036
-0.05301076918840408 -0.4107537865638733 -0.07827763259410858 -0.07984156906604767 0.06349512189626694 -0.14248518645763397 -0.08902035653591156 0.07787451893091202
-0.17426764965057373 -0.12140277028083801 0.008046682924032211 0.07544715702533722 -0.12082128971815109 -0.09221291542053223 0.1384074091911316 0.09392329305410385
-0.06070384010672569 0.030208028852939606 -0.01786031946539879 0.3804040849208832 0.17486755549907684 0.15626201033592224 0.05221521854400635 -0.02142081782221794
0.06885773688554764 -0.26245754957199097 0.10828779637813568 0.16042526066303253 0.12466970086097717 0.10299990326166153 0.08687791973352432 -0.1997208446264267
0.08052623271942139 0.1116098016500473 -0.21112331748008728 0.0960676521062851 0.01875869370996952 -0.06409105658531189 0.06703712046146393 -0.0721292719244957
0.28977957367897034 0.10163450241088867 -0.06389375776052475 -0.08706106245517731 0.14993244409561157 -0.10676164925098419 -0.009345969185233116 0.05557701736688614
-0.1056939959526062 -0.1424647569656372 -0.1612965613603592 0.06784851849079132 0.3596595823764801 0.23045989871025085 -0.17234547436237335 -0.02411646768450737
-0.1377224624156952 -0.019788146018981934 0.048710599541664124 0.011088760569691658 -0.054991886019706726 -0.06175409257411957 -0.15265662968158722 -0.050484299659729004
0.14229226112365723 0.01833226904273033 -0.04944337531924248 0.2208937555551529 0.02375377155840397 -0.05814030393958092 0.09891083836555481 -0.058142807334661484
-0.15874545276165009 0.058815959841012955 -0.09097167104482651 -0.028982385993003845 -0.04618882015347481 -0.17759652435779572 -0.02742971107363701 0.04302940517663956
-0.18696384131908417 0.15684141218662262 -0.028949400410056114 0.012636825442314148 0.01870427094399929 -0.07985340803861618 -0.15368621051311493 0.01834440976381302
0.16501525044441223 -0.350109338760376 0.2602446377277374 0.13100838661193848 0.10623049736022949 0.22817882895469666 0.07702630013227463 0.10590942203998566
-0.03670932725071907 -0.0951860323548317 -0.10934555530548096 -0.1259903609752655 0.04329034313559532 -0.038500264286994934 0.07539083063602448 0.04226278141140938
