FACE_REC_3/data/embeddings/042_b0c87dc0.npy (npy, 1152 bytes, 1 tensors)

array f8 [128]
00000000: 0000 0080 5beb c0bf 0000 0040 5982 c33f
00000010: 0000 0040 3ffd a03f 0000 00a0 ef91 b03f
00000020: 0000 00a0 1a05 a5bf 0000 0080 90c1 b0bf
00000030: 0000 00c0 6368 b83f 0000 00e0 c1ac c3bf
00000040: 0000 00a0 9b7e c63f 0000 0020 9e47 b6bf
00000050: 0000 0040 81a2 cd3f 0000 00a0 4605 b9bf
00000060: 0000 0060 e2ba cbbf 0000 0060 b03d c8bf
00000070: 0000 0040 597f ab3f 0000 0040 9158 ba3f
00000080: 0000 0080 c2a2 c3bf 0000 0000 ba60 b3bf
00000090: 0000 0020 4276 c2bf 0000 00a0 3f6e c1bf
000000a0: 0000 0000 fd97 97bf 0000 0060 be1d 8e3f
000000b0: 0000 0000 bc99 b13f 0000 0060 cd6b 833f
000000c0: 0000 0040 00d4 a5bf 0000 0040 083a d8bf
000000d0: 0000 0040 694d b4bf 0000 0040 f8b0 cbbf
000000e0: 0000 00a0 1bd9 b33f 0000 00c0 45df c1bf
000000f0: 0000 0080 48af a4bf 0000 00e0 54fd 8d3f
00000100: 0000 00c0 d455 cbbf 0000 0060 3693 c6bf
00000110: 0000 00e0 8530 b0bf 0000 00a0 b20a 8ebf
00000120: 0000 0020 4829 953f 0000 0000 8362 74bf
00000130: 0000 00e0 c988 c23f 0000 0060 101e 94bf
00000140: 0000 0000 a65a bdbf 0000 00a0 63c6 9abf
00000150: 0000 0080 8489 a43f 0000 0040 c37e d03f
00000160: 0000 0000 7b2f d03f 0000 0040 d766 923f
00000170: 0000 0020 9a72 b6bf 0000 0000 a470 7d3f
00000180: 0000 00c0 b6f4 b33f 0000 0060 23c3 cabf
00000190: 0000 00a0 743f 97bf 0000 0020 63b7 a53f
000001a0: 0000 0000 f4f3 c93f 0000 0080 dd48 903f
000001b0: 0000 0040 4d88 9d3f 0000 00a0 c3fb bebf
000001c0: 0000 00c0 175a abbf 0000 0000 c8e3 763f
000001d0: 0000 0040 7fa1 cebf 0000 0040 2fda a03f
000001e0: 0000 0040 a89f b73f 0000 0060 0480 bcbf
000001f0: 0000 0020 5c88 c2bf 0000 0020 2917 a33f
00000200: 0000 0080 409f d33f 0000 0080 d687 c23f
00000210: 0000 00c0 9d69 bfbf 0000 00c0 a53a a8bf
00000220: 0000 0000 9b25 c53f 0000 0000 e534 c9bf
00000230: 0000 0000 24a1 a33f 0000 00c0 ee12 793f
00000240: 0000 00e0 d8ab b4bf 0000 0000 825c bfbf
00000250: 0000 00a0 4808 d1bf 0000 0000 6326 b43f
00000260: 0000 00c0 4a10 d93f 0000 00a0 f199 bc3f
00000270: 0000 0060 10a3 cbbf 0000 00e0 d275 b5bf
00000280: 0000 00a0 e61c ccbf 0000 0080 25aa aa3f
00000290: 0000 00c0 99a7 7b3f 0000 00c0 f126 ae3f
000002a0: 0000 0000 00cc babf 0000 0020 87ef 92bf
000002b0: 0000 00a0 9b0b b7bf 0000 0000 b67e 6c3f
000002c0: 0000 00c0 9cab ad3f 0000 0080 b6f6 60bf
000002d0: 0000 0020 1642 b4bf 0000 0020 12b1 ce3f
000002e0: 0000 0000 d4f7 abbf 0000 0000 0288 a63f
000002f0: 0000 0040 3862 933f 0000 00e0 517a abbf
00000300: 0000 0040 8342 bbbf 0000 00e0 432f b9bf
00000310: 0000 00c0 b766 bebf 0000 00e0 336f aabf
00000320: 0000 00e0 4bfc a93f 0000 00a0 8669 c0bf
00000330: 0000 0080 7cbb 77bf 0000 00a0 bf79 be3f
00000340: 0000 00a0 d1b7 c6bf 0000 0040 1a8f c03f
00000350: 0000 0020 7cc5 6dbf 0000 0000 9287 48bf
00000360: 0000 00e0 c731 a93f 0000 0060 3065 9bbf
00000370: 0000 0060 3935 97bf 0000 0060 59a3 8ebf
00000380: 0000 00e0 5b62 c33f 0000 00a0 8739 ccbf
00000390: 0000 0060 3c8c c83f 0000 0000 5515 c43f
000003a0: 0000 0000 458a a5bf 0000 0040 1634 c63f
000003b0: 0000 00a0 6545 7b3f 0000 00a0 fe42 ad3f
000003c0: 0000 0020 b5d7 a2bf 0000 00c0 0ca3 853f
000003d0: 0000 0040 50c1 c4bf 0000 00e0 bb70 b2bf
000003e0: 0000 0020 e7b7 a93f 0000 0020 c4c3 b2bf
000003f0: 0000 0080 ef55 ad3f 0000 0040 a0ba 68bf
-0.1321825385093689 0.1524154245853424 0.03318212181329727 0.0647268071770668 -0.04105456545948982 -0.06545355916023254 0.09534285962581635 -0.15370963513851166
0.17573876678943634 -0.08703029900789261 0.23152175545692444 -0.09773675352334976 -0.21664075553417206 -0.18938259780406952 0.05370596796274185 0.10291393101215363
-0.15340453386306763 -0.07569468021392822 -0.14423395693302155 -0.13617701828479767 -0.02304072678089142 0.014705169014632702 0.06875205039978027 0.00948296021670103
-0.0426330640912056 -0.3785420060157776 -0.07930620014667511 -0.21633818745613098 0.07753155380487442 -0.13962623476982117 -0.04039980471134186 0.014643347822129726
-0.21355685591697693 -0.17636756598949432 -0.0632404014468193 -0.01466884184628725 0.02066528983414173 -0.004976760596036911 0.14479945600032806 -0.0196459349244833
-0.11466443538665771 -0.026147419586777687 0.04011167585849762 0.2577369809150696 0.2528979778289795 0.017970431596040726 -0.08768618851900101 0.007187500596046448
0.0779527872800827 -0.20908014476299286 -0.022703001275658607 0.04241475835442543 0.2027573585510254 0.015902958810329437 0.028840262442827225 -0.12102911621332169
-0.05342172831296921 0.005588322877883911 -0.23930349946022034 0.03291461616754532 0.09227992594242096 -0.11132838577032089 -0.14478637278079987 0.037286076694726944
0.30659496784210205 0.14477044343948364 -0.12270532548427582 -0.04732244461774826 0.16521012783050537 -0.19692671298980713 0.03833878040313721 0.00612157117575407
-0.08074717968702316 -0.1225053071975708 -0.26613059639930725 0.07871073484420776 0.39161938428878784 0.11172399669885635 -0.2159138172864914 -0.08382909744977951
-0.21963198482990265 0.05207936465740204 0.006751633249223232 0.058890871703624725 -0.10467529296875 -0.018491851165890694 -0.09002087265253067 0.003478389233350754
0.05794992297887802 -0.0020707668736577034 -0.07913339883089066 0.2397787719964981 -0.05462515354156494 0.044006407260894775 0.018929366022348404 -0.05366760119795799
-0.10648365318775177 -0.09837745875120163 -0.11875484883785248 -0.05162965878844261 0.050752993673086166 -0.12822039425373077 -0.005794035270810127 0.11904523521661758
-0.17748470604419708 0.1293671429157257 -0.003634207183495164 -0.0007485831156373024 0.04920792207121849 -0.026753192767500877 -0.022663971409201622 -0.014960001222789288
0.15143917500972748 -0.22050566971302032 0.19177965819835663 0.15690100193023682 -0.04207053780555725 0.1734645664691925 0.0066579789854586124 0.05715175345540047
-0.03680196776986122 0.010564899072051048 -0.16214945912361145 -0.07203268259763718 0.050231192260980606 -0.07329965382814407 0.0572962611913681 -0.0030186777003109455
