FACE_REC_3/data/embeddings/043_b812749f.npy (npy, 1152 bytes, 1 tensors)

array f8 [128]
-0.17383554577827454 0.1306753009557724 0.1792393922805786 -0.08021996170282364 -0.18741773068904877 -0.03187137097120285 -0.05236818268895149 -0.1272083818912506
0.235078364610672 -0.12801390886306763 0.19309599697589874 -0.027750499546527863 -0.3130037486553192 0.07098877429962158 -0.030038360506296158 0.14873085916042328
-0.2303474396467209 -0.1408701241016388 -0.07837899029254913 -0.11340975761413574 0.05855300650000572 0.05812546983361244 -0.007976686581969261 0.08864226937294006
-0.2019425928592682 -0.3330725431442261 -0.1358107030391693 0.01286785677075386 0.0010424014180898666 -0.13549667596817017 0.06155724078416824 0.08579807728528976
-0.21214303374290466 -0.01960214599967003 -0.02550666406750679 0.1630258709192276 -0.06385509669780731 -0.2036612629890442 0.05323048681020737 -0.005997893400490284
-0.21791096031665802 -0.13039906322956085 0.10286696255207062 0.25994184613227844 0.23644374310970306 -0.0034656822681427 0.017631813883781433 -0.07944542914628983
0.12335330992937088 -0.31281980872154236 0.09318660199642181 0.2115214318037033 -0.008760128170251846 0.12514424324035645 0.12267209589481354 -0.2588704824447632
0.0510551780462265 0.1286175549030304 -0.13548673689365387 0.0353248231112957 0.15776388347148895 -0.1280387043952942 0.05297565460205078 -0.045115429908037186
0.19714199006557465 0.16664011776447296 -0.1339879035949707 -0.12639057636260986 0.18314296007156372 -0.16612379252910614 -0.030163496732711792 0.03945261985063553
-0.20158448815345764 -0.18387648463249207 -0.37246254086494446 0.04229982569813728 0.4548749625682831 0.12024027109146118 -0.09794951975345612 -0.0005341507494449615
-0.04354622960090637 0.04718806594610214 0.032008666545152664 0.23966440558433533 -0.03686624765396118 -0.03560863435268402 -0.15056981146335602 0.13946595788002014
0.16335178911685944 -0.004840683192014694 -0.026728881523013115 0.2770533263683319 0.015762466937303543 -0.07990235090255737 0.06070878356695175 0.12758806347846985
-0.2017124444246292 -0.023955373093485832 -0.12036290764808655 0.0324188694357872 0.010465474799275398 -0.012130065821111202 -0.05612742155790329 0.15752200782299042
-0.05148572474718094 0.15518717467784882 0.026052962988615036 -0.013069657608866692 -0.08039475232362747 -0.11499731987714767 -0.11029667407274246 -0.07928021997213364
0.13947170972824097 -0.22681649029254913 0.14813262224197388 0.1288578361272812 -0.027876241132616997 0.21194489300251007 0.020152263343334198 0.195280060172081
0.013019636273384094 -0.04313283413648605 -0.04141679406166077 -0.014151904731988907 -0.02660078927874565 -0.046452466398477554 -0.022927777841687202 0.032754234969615936
00000000: 0000 0040 3e40 c6bf 0000 00e0 f7b9 c03f
00000010: 0000 0000 51f1 c63f 0000 00a0 4b89 b4bf
00000020: 0000 00e0 4dfd c7bf 0000 00c0 7151 a0bf
00000030: 0000 00a0 00d0 aabf 0000 0040 5d48 c0bf
00000040: 0000 0040 0c17 ce3f 0000 0080 c262 c0bf
00000050: 0000 00a0 5eb7 c83f 0000 0080 a06a 9cbf
00000060: 0000 00e0 4008 d4bf 0000 0000 522c b23f
00000070: 0000 0040 60c2 9ebf 0000 00e0 9c09 c33f
00000080: 0000 0060 067c cdbf 0000 0040 0808 c2bf
00000090: 0000 0040 a510 b4bf 0000 0000 6c08 bdbf
000000a0: 0000 00e0 a8fa ad3f 0000 0020 9fc2 ad3f
000000b0: 0000 00c0 1456 80bf 0000 0080 42b1 b63f
000000c0: 0000 0040 41d9 c9bf 0000 0080 0f51 d5bf
000000d0: 0000 00c0 3e62 c1bf 0000 0080 765a 8a3f
000000e0: 0000 0000 2614 513f 0000 0080 f457 c1bf
000000f0: 0000 0040 6e84 af3f 0000 00e0 dcf6 b53f
00000100: 0000 00c0 8027 cbbf 0000 00c0 9512 94bf
00000110: 0000 0040 6b1e 9abf 0000 0020 08de c43f
00000120: 0000 00c0 ce58 b0bf 0000 0080 9211 cabf
00000130: 0000 00c0 0641 ab3f 0000 0040 3f91 78bf
00000140: 0000 00a0 81e4 cbbf 0000 00a0 eab0 c0bf
00000150: 0000 0040 7d55 ba3f 0000 0020 e3a2 d03f
00000160: 0000 00e0 c943 ce3f 0000 0000 1064 6cbf
00000170: 0000 0000 130e 923f 0000 0020 8956 b4bf
00000180: 0000 0020 1594 bf3f 0000 0060 3d05 d4bf
00000190: 0000 00c0 13db b73f 0000 0060 2213 cb3f
000001a0: 0000 0080 d4f0 81bf 0000 0000 ba04 c03f
000001b0: 0000 0040 7067 bf3f 0000 0080 5591 d0bf
000001c0: 0000 0080 e723 aa3f 0000 0040 8a76 c03f
000001d0: 0000 0020 a157 c1bf 0000 0060 1816 a23f
000001e0: 0000 0060 9b31 c43f 0000 0080 9263 c0bf
000001f0: 0000 0000 a01f ab3f 0000 00a0 5e19 a7bf
00000200: 0000 00e0 f23b c93f 0000 00a0 7654 c53f
00000210: 0000 0000 8426 c1bf 0000 0000 912d c0bf
00000220: 0000 0080 3a71 c73f 0000 0060 8b43 c5bf
00000230: 0000 0000 2ee3 9ebf 0000 0040 2233 a43f
00000240: 0000 0040 85cd c9bf 0000 00c0 4389 c7bf
00000250: 0000 0020 6dd6 d7bf 0000 00a0 52a8 a53f
00000260: 0000 00e0 ab1c dd3f 0000 0000 11c8 be3f
00000270: 0000 0040 3813 b9bf 0000 0000 c880 41bf
00000280: 0000 0000 b14b a6bf 0000 00c0 0829 a83f
00000290: 0000 00a0 7063 a03f 0000 00c0 52ad ce3f
000002a0: 0000 0000 22e0 a2bf 0000 0080 4b3b a2bf
000002b0: 0000 0020 df45 c3bf 0000 0040 05da c13f
000002c0: 0000 0020 b6e8 c43f 0000 0000 d3d3 73bf
000002d0: 0000 00e0 d05e 9bbf 0000 00e0 3dbb d13f
000002e0: 0000 0040 0924 903f 0000 0000 7b74 b4bf
000002f0: 0000 00c0 3815 af3f 0000 0040 ce54 c03f
00000300: 0000 00a0 b6d1 c9bf 0000 00e0 c187 98bf
00000310: 0000 0080 1ad0 bebf 0000 00c0 3499 a03f
00000320: 0000 0040 ec6e 853f 0000 00e0 a5d7 88bf
00000330: 0000 00c0 bbbc acbf 0000 0060 ae29 c43f
00000340: 0000 0040 565c aabf 0000 0060 2cdd c33f
00000350: 0000 00c0 a0ad 9a3f 0000 00c0 43c4 8abf
00000360: 0000 0020 c094 b4bf 0000 00e0 7670 bdbf
00000370: 0000 0020 673c bcbf 0000 0060 b54b b4bf
00000380: 0000 0080 35da c13f 0000 00a0 5208 cdbf
00000390: 0000 0080 02f6 c23f 0000 00e0 697e c03f
000003a0: 0000 00e0 968b 9cbf 0000 00a0 0221 cb3f
000003b0: 0000 0080 cba2 943f 0000 00e0 effe c83f
000003c0: 0000 0000 0aaa 8a3f 0000 00c0 8115 a6bf
000003d0: 0000 0000 9534 a5bf 0000 0080 acfb 8cbf
000003e0: 0000 00c0 3c3d 9bbf 0000 0020 9ec8 a7bf
000003f0: 0000 0020 617a 97bf 0000 00c0 29c5 a03f
