FACE_REC_3/data/embeddings/054_b8e917f6.npy (npy, 1152 bytes, 1 tensors)

array f8 [128]
000000 00 00 00 00 9f c5 bd bf 00 00 00 c0 f3 28 c0 3f
       -0.11629670858383179 0.126249760389328
000010 00 00 00 a0 9e ba ba 3f 00 00 00 a0 72 ac 90 3f
       0.1044100895524025 0.016282835975289345
000020 00 00 00 e0 00 8a ab bf 00 00 00 c0 a4 7f a4 bf
       -0.05378725752234459 -0.04003634303808212
000030 00 00 00 e0 9e 09 b2 3f 00 00 00 40 82 2c c3 bf
       0.07045929878950119 -0.149795800447464
000040 00 00 00 00 06 02 c0 3f 00 00 00 00 67 9a 9f bf
       0.1250617504119873 -0.030862435698509216
000050 00 00 00 40 45 69 d3 3f 00 00 00 80 c9 5d 81 3f
       0.3033002018928528 0.008479665964841843
000060 00 00 00 40 c0 6f ce bf 00 00 00 60 13 ec c4 bf
       -0.23778536915779114 -0.16345445811748505
000070 00 00 00 40 15 08 95 bf 00 00 00 40 02 e0 bb 3f
       -0.02053864672780037 0.10888685286045074
000080 00 00 00 40 5f f3 bd bf 00 00 00 e0 bc cc b2 bf
       -0.11699481308460236 -0.07343655079603195
000090 00 00 00 60 4b 0d c5 bf 00 00 00 c0 ad 5e b5 bf
       -0.1644682139158249 -0.08347593247890472
0000a0 00 00 00 40 65 11 8e bf 00 00 00 e0 ff 2c ae 3f
       -0.014681616798043251 0.05893706902861595
0000b0 00 00 00 a0 59 51 b3 3f 00 00 00 40 f2 93 9d 3f
       0.0754600539803505 0.028884682804346085
0000c0 00 00 00 20 a4 28 97 3f 00 00 00 c0 fd ab d2 bf
       0.02261597104370594 -0.291747510433197
0000d0 00 00 00 00 9d 62 ba bf 00 00 00 a0 dc 60 c6 bf
       -0.10306721925735474 -0.17483098804950714
0000e0 00 00 00 e0 43 af b1 3f 00 00 00 c0 5d 0b b6 bf
       0.06908058375120163 -0.08611093461513519
0000f0 00 00 00 00 30 81 ae bf 00 00 00 60 5c 28 a7 bf
       -0.05957937240600586 -0.04522980377078056
000100 00 00 00 c0 25 5a c5 bf 00 00 00 e0 7c ce bc bf
       -0.16681358218193054 -0.11252575367689133
000110 00 00 00 80 16 ef b0 bf 00 00 00 c0 d9 ac a3 bf
       -0.06614819169044495 -0.03842812031507492
000120 00 00 00 c0 3b b4 6b 3f 00 00 00 80 09 eb ac bf
       0.003381840419024229 -0.05648069083690643
000130 00 00 00 20 7e f3 c9 3f 00 00 00 40 b1 51 99 bf
       0.2027433067560196 -0.024725694209337234
000140 00 00 00 20 ac de be bf 00 00 00 20 b5 9d 99 3f
       -0.12058521062135696 0.02501566894352436
000150 00 00 00 e0 61 54 a5 3f 00 00 00 20 f2 47 d0 3f
       0.041659411042928696 0.25439122319221497
000160 00 00 00 80 de ea d0 3f 00 00 00 c0 22 ab 9c bf
       0.2643352746963501 -0.02799658104777336
000170 00 00 00 80 9d e8 91 bf 00 00 00 00 f3 bf aa 3f
       -0.01748891919851303 0.05224570631980896
000180 00 00 00 80 22 43 7d 3f 00 00 00 c0 fa f8 ce bf
       0.007144102826714516 -0.24197325110435486
000190 00 00 00 e0 92 92 a0 3f 00 00 00 00 79 e7 b4 3f
       0.03236826881766319 0.08165699243545532
0001a0 00 00 00 e0 4c ed c8 3f 00 00 00 80 cb 43 8c bf
       0.19474183022975922 -0.013801183551549911
0001b0 00 00 00 e0 e3 a9 b3 3f 00 00 00 80 99 77 c2 bf
       0.07681106775999069 -0.14427489042282104
0001c0 00 00 00 00 51 60 ba bf 00 00 00 00 bb 44 af 3f
       -0.1030321717262268 0.0610712468624115
0001d0 00 00 00 a0 4c 78 c6 bf 00 00 00 a0 aa 55 a5 3f
       -0.17554624378681183 0.04166920855641365
0001e0 00 00 00 20 c4 f7 b0 3f 00 00 00 a0 e6 42 b6 bf
       0.06628061085939407 -0.08695832639932632
0001f0 00 00 00 a0 38 63 b4 bf 00 00 00 e0 6c bd 9e bf
       -0.0796389952301979 -0.030019475147128105
000200 00 00 00 e0 22 b2 d0 3f 00 00 00 a0 ea 89 c1 3f
       0.26087257266044617 0.13702137768268585
000210 00 00 00 00 81 f6 c0 bf 00 00 00 80 69 cb b6 bf
       -0.13252270221710205 -0.0890413224697113
000220 00 00 00 60 11 22 c4 3f 00 00 00 80 38 1a c9 bf
       0.15728966891765594 -0.19611269235610962
000230 00 00 00 60 ab 6a a4 3f 00 00 00 00 89 73 b2 3f
       0.03987632319331169 0.07207542657852173
000240 00 00 00 80 a3 06 c1 bf 00 00 00 c0 ce df b8 bf
       -0.13301509618759155 -0.09716503322124481
000250 00 00 00 60 f7 de ca bf 00 00 00 60 af 10 c0 3f
       -0.20992939174175262 0.12550918757915497
000260 00 00 00 20 1a 23 db 3f 00 00 00 a0 22 df bc 3f
       0.42401745915412903 0.11277977377176285
000270 00 00 00 60 10 64 c8 bf 00 00 00 a0 a7 cd ac bf
       -0.1905537098646164 -0.05625652149319649
000280 00 00 00 e0 6c 81 cc bf 00 00 00 20 a0 e0 7e 3f
       -0.22269974648952484 0.007538438308984041
000290 00 00 00 e0 7d 21 a2 bf 00 00 00 c0 a0 c2 a1 bf
       -0.0354117713868618 -0.03468801826238632
0002a0 00 00 00 80 7b 0c af bf 00 00 00 00 99 92 78 bf
       -0.06064210832118988 -0.005999181419610977
0002b0 00 00 00 80 55 31 c4 bf 00 00 00 80 c6 18 8a bf
       -0.1577555537223816 -0.01274256780743599
0002c0 00 00 00 00 e9 c2 b8 3f 00 00 00 00 6c 00 85 bf
       0.09672409296035767 -0.010254710912704468
0002d0 00 00 00 80 3a 87 8c bf 00 00 00 60 af eb d1 3f
       -0.013929802924394608 0.28001007437705994
0002e0 00 00 00 40 9b 0e 94 bf 00 00 00 80 c7 b9 ad bf
       -0.019586969166994095 -0.058058008551597595
0002f0 00 00 00 20 ae ed a5 3f 00 00 00 40 9c e4 8f bf
       0.04282898083329201 -0.01557275839149952
000300 00 00 00 60 4f 63 93 bf 00 00 00 c0 e0 ed b2 bf
       -0.018933525308966637 -0.07394222915172577
000310 00 00 00 60 35 e2 b4 bf 00 00 00 20 d1 44 a5 3f
       -0.08157666772603989 0.04154065623879433
000320 00 00 00 80 51 bc 90 bf 00 00 00 80 96 67 c8 bf
       -0.0163433775305748 -0.1906612515449524
000330 00 00 00 80 8d 50 93 3f 00 00 00 80 86 af ab 3f
       0.01886197179555893 0.054073527455329895
000340 00 00 00 60 fd f7 c3 bf 00 00 00 80 e3 54 a3 3f
       -0.15600554645061493 0.0377570241689682
000350 00 00 00 60 10 aa a3 bf 00 00 00 40 f5 54 7b bf
       -0.0384068600833416 -0.006672819145023823
000360 00 00 00 00 0c 57 62 3f 00 00 00 00 48 92 a1 bf
       0.0022387728095054626 -0.034319162368774414
000370 00 00 00 c0 ca 9b b3 bf 00 00 00 a0 44 91 9e bf
       -0.07659594714641571 -0.029851028695702553
000380 00 00 00 80 8f 6b ca 3f 00 00 00 80 bc eb cc bf
       0.20640748739242554 -0.22594410181045532
000390 00 00 00 40 3e 43 c6 3f 00 00 00 e0 da ea be 3f
       0.17392709851264954 0.12077110260725021
0003a0 00 00 00 40 df 50 9f bf 00 00 00 a0 c9 1b bd 3f
       -0.030581939965486526 0.11370525509119034
0003b0 00 00 00 80 be 46 88 bf 00 00 00 a0 36 11 be 3f
       -0.011853683739900589 0.11745015531778336
0003c0 00 00 00 80 a5 8f b2 bf 00 00 00 00 63 5a 99 bf
       -0.07250437140464783 -0.02475886046886444
0003d0 00 00 00 e0 fe 40 b8 bf 00 00 00 80 4b 7c b5 bf
       -0.09474175423383713 -0.08392783999443054
0003e0 00 00 00 60 eb ee 90 3f 00 00 00 80 ba 6f b5 bf
       0.016536405310034752 -0.08373609185218811
0003f0 00 00 00 60 29 5b b5 3f 00 00 00 80 b2 2f ae 3f
       0.08342226594686508 0.058957651257514954
