FACE_REC_3/data/embeddings/059_b5b38942.npy (npy, 1152 bytes, 1 tensors)

array f8 [128]
-0.14607930183410645 0.12539377808570862 -0.008990637958049774 -0.08214825391769409 0.005310583859682083 0.031848080456256866 -0.07043756544589996 -0.06485813856124878
0.2634507417678833 -0.043281443417072296 0.1942426860332489 -0.0194028802216053 -0.3381720185279846 -0.009047288447618484 -0.09139060229063034 0.20638394355773926
-0.17998462915420532 -0.0679437518119812 -0.12779831886291504 -0.1139996275305748 0.0942908301949501 0.06924217939376831 0.046359945088624954 0.16809116303920746
-0.14103984832763672 -0.2804349660873413 -0.04027542844414711 -0.12711027264595032 -0.0001904396340250969 -0.1572272777557373 0.04804907739162445 0.05415920540690422
-0.1652388721704483 0.050333622843027115 0.0012161340564489365 0.16150930523872375 -0.08679930865764618 -0.12639683485031128 0.14208416640758514 0.02009427919983864
-0.18304389715194702 -0.07034232467412949 0.003231748938560486 0.23973792791366577 0.284280925989151 -0.04374497011303902 -0.0017843469977378845 -0.14270296692848206
0.24658019840717316 -0.32626309990882874 0.033529918640851974 0.207247793674469 -0.042826663702726364 0.16932222247123718 0.1445785015821457 -0.19051995873451233
0.05786387622356415 0.21390420198440552 -0.21499839425086975 -0.02230195701122284 0.00964565109461546 -0.050382208079099655 -0.026560325175523758 -0.08128371089696884
0.0919257253408432 0.12764295935630798 -0.15276066958904266 -0.20799478888511658 0.19012485444545746 -0.20221412181854248 0.03072231262922287 0.20993900299072266
-0.1169232726097107 -0.25413304567337036 -0.2532835304737091 0.06870541721582413 0.3458348512649536 0.19045601785182953 -0.04474606364965439 0.09922800213098526
-0.04961502179503441 -0.04808492213487625 -0.040081676095724106 0.07640636712312698 -0.04725700616836548 0.0017779506742954254 -0.09885450452566147 0.0419272780418396
0.13077448308467865 0.01011852826923132 0.05609046667814255 0.3471832573413849 -0.053078629076480865 -0.037656381726264954 0.03541336581110954 0.142408087849617
-0.20953290164470673 0.016813090071082115 -0.10150470584630966 -0.07938963174819946 0.03194456920027733 -0.07680713385343552 0.027609732002019882 -0.00036774948239326477
-0.13461758196353912 0.2126992791891098 -0.04506707191467285 0.07534729689359665 -0.027388915419578552 -0.07512257993221283 -0.09659076482057571 0.04254968836903572
0.21735970675945282 -0.2757349908351898 0.19498521089553833 0.07482519745826721 0.07482358068227768 0.13806793093681335 0.05056999996304512 0.1534520387649536
-0.05284462124109268 -0.10191978514194489 -0.15546265244483948 -0.006294384133070707 0.03679261729121208 -0.005975246429443359 -0.07142108678817749 -0.022530412301421165
00000000: 0000 0000 bab2 c2bf 0000 0040 e70c c03f
00000010: 0000 0000 af69 82bf 0000 0000 ab07 b5bf
00000020: 0000 0000 8dc0 753f 0000 0040 644e a03f
00000030: 0000 0040 3208 b2bf 0000 0000 8b9a b0bf
00000040: 0000 0080 60dc d03f 0000 0040 fc28 a6bf
00000050: 0000 00c0 f1dc c83f 0000 0040 59de 93bf
00000060: 0000 0040 9ca4 d5bf 0000 0080 6287 82bf
00000070: 0000 00e0 5f65 b7bf 0000 0000 ca6a ca3f
00000080: 0000 0080 bc09 c7bf 0000 0000 c364 b1bf
00000090: 0000 0000 b25b c0bf 0000 0060 142f bdbf
000000a0: 0000 00a0 7123 b83f 0000 0000 dbb9 b13f
000000b0: 0000 00a0 7dbc a73f 0000 00e0 0284 c53f
000000c0: 0000 0000 980d c2bf 0000 0080 a5f2 d1bf
000000d0: 0000 0020 fb9e a4bf 0000 0040 2645 c0bf
000000e0: 0000 0000 18f6 28bf 0000 0000 0620 c4bf
000000f0: 0000 0080 e399 a83f 0000 0060 c1ba ab3f
00000100: 0000 0020 8c26 c5bf 0000 0020 54c5 a93f
00000110: 0000 0000 d6ec 533f 0000 0040 56ac c43f
00000120: 0000 00c0 7a38 b6bf 0000 0080 c52d c0bf
00000130: 0000 0060 d02f c23f 0000 0040 9893 943f
00000140: 0000 0080 fb6d c7bf 0000 0060 f401 b2bf
00000150: 0000 0000 7879 6a3f 0000 0080 bbaf ce3f
00000160: 0000 00a0 a831 d23f 0000 00a0 bd65 a6bf
00000170: 0000 0000 183c 5dbf 0000 0040 1744 c2bf
00000180: 0000 00a0 f08f cf3f 0000 00a0 7ee1 d4bf
00000190: 0000 0060 d52a a13f 0000 0080 1887 ca3f
000001a0: 0000 0060 60ed a5bf 0000 00c0 59ac c53f
000001b0: 0000 0060 8c81 c23f 0000 0040 f562 c8bf
000001c0: 0000 0080 55a0 ad3f 0000 0080 3661 cb3f
000001d0: 0000 0040 1185 cbbf 0000 0000 53d6 96bf
000001e0: 0000 0060 19c1 833f 0000 0060 b2cb a9bf
000001f0: 0000 0040 a132 9bbf 0000 0060 02cf b4bf
00000200: 0000 00c0 7188 b73f 0000 00c0 9a56 c03f
00000210: 0000 0060 a98d c3bf 0000 00c0 929f cabf
00000220: 0000 00e0 0256 c83f 0000 0000 27e2 c9bf
00000230: 0000 0080 ab75 9f3f 0000 0000 48df ca3f
00000240: 0000 0000 afee bdbf 0000 0040 b743 d0bf
00000250: 0000 0020 cc35 d0bf 0000 00a0 ad96 b13f
00000260: 0000 0080 2822 d63f 0000 00e0 dc60 c83f
00000270: 0000 00c0 f4e8 a6bf 0000 00a0 0167 b93f
00000280: 0000 00e0 2367 a9bf 0000 0040 969e a8bf
00000290: 0000 00e0 9585 a4bf 0000 0020 5e8f b33f
000002a0: 0000 0000 1232 a8bf 0000 0000 4421 5d3f
000002b0: 0000 0060 874e b9bf 0000 0000 7e77 a53f
000002c0: 0000 00e0 37bd c03f 0000 00e0 05b9 843f
000002d0: 0000 00c0 e3b7 ac3f 0000 0020 4038 d63f
000002e0: 0000 0040 1f2d abbf 0000 0080 b247 a3bf
000002f0: 0000 0060 b321 a23f 0000 00a0 6d3a c23f
00000300: 0000 0060 f9d1 cabf 0000 0060 7337 913f
00000310: 0000 0060 36fc b9bf 0000 0000 e152 b4bf
00000320: 0000 00e0 095b a03f 0000 00e0 a1a9 b3bf
00000330: 0000 00c0 b945 9c3f 0000 0000 d019 38bf
00000340: 0000 0020 263b c1bf 0000 00e0 ba39 cb3f
00000350: 0000 0000 0813 a7bf 0000 00e0 f549 b33f
00000360: 0000 0000 d70b 9cbf 0000 00c0 3b3b b3bf
00000370: 0000 0020 2cba b8bf 0000 00a0 12c9 a53f
00000380: 0000 0060 71d2 cb3f 0000 0060 a4a5 d1bf
00000390: 0000 0080 46f5 c83f 0000 0080 be27 b33f
000003a0: 0000 0060 a327 b33f 0000 00c0 35ac c13f
000003b0: 0000 00a0 4fe4 a93f 0000 0000 51a4 c33f
000003c0: 0000 0040 730e abbf 0000 0040 6a17 babf
000003d0: 0000 0040 33e6 c3bf 0000 00e0 23c8 79bf
000003e0: 0000 0060 7bd6 a23f 0000 0000 8079 78bf
000003f0: 0000 0000 a748 b2bf 0000 0060 3612 97bf
