FACE_REC_3/data/embeddings/060_b53036a3.npy (npy, 1152 bytes, 1 tensors)

array f8 [128]
00000000: 0000 0000 e1f2 b5bf 0000 00e0 9f0d c13f
00000010: 0000 00e0 b4ab 80bf 0000 00c0 a86b 853f
00000020: 0000 0040 c448 c2bf 0000 00a0 2b71 b23f
00000030: 0000 00c0 92cf b53f 0000 0060 b93c a8bf
00000040: 0000 0060 65a1 c53f 0000 0060 affc bfbf
00000050: 0000 0040 5bfb cc3f 0000 0020 0cc5 833f
00000060: 0000 0080 2a5f cabf 0000 0020 8e94 b4bf
00000070: 0000 00c0 dae7 b2bf 0000 00a0 ebf1 b43f
00000080: 0000 00a0 5785 c1bf 0000 0080 c020 c2bf
00000090: 0000 0060 9b76 c6bf 0000 0000 550e b9bf
000000a0: 0000 0060 880b 9c3f 0000 0040 f6f4 a73f
000000b0: 0000 0020 9d97 b5bf 0000 0000 30c8 67bf
000000c0: 0000 00c0 2347 d0bf 0000 0040 63c9 d3bf
000000d0: 0000 0080 3028 703f 0000 00a0 15b4 b3bf
000000e0: 0000 0040 63f7 9f3f 0000 00e0 959e c5bf
000000f0: 0000 0080 5941 77bf 0000 0060 c86e c23f
00000100: 0000 0040 05bd c4bf 0000 0000 0a84 8dbf
00000110: 0000 00e0 52bb 99bf 0000 0000 9e6c 953f
00000120: 0000 00e0 1fc8 acbf 0000 0060 43a0 a1bf
00000130: 0000 0020 f259 c83f 0000 00c0 d46c 8f3f
00000140: 0000 00e0 3f80 c5bf 0000 0020 b213 b73f
00000150: 0000 00e0 9bec 873f 0000 00e0 b176 d33f
00000160: 0000 0040 87d4 ce3f 0000 0060 18f0 a3bf
00000170: 0000 0000 08d7 8cbf 0000 0040 fd1f bcbf
00000180: 0000 00c0 33ef c63f 0000 0020 c564 d3bf
00000190: 0000 0080 6b7c 923f 0000 0040 1b68 c83f
000001a0: 0000 00a0 ea31 a23f 0000 0020 188c b83f
000001b0: 0000 0040 6326 ba3f 0000 00e0 8c4c c0bf
000001c0: 0000 0080 b8e8 a2bf 0000 0020 c0dd b63f
000001d0: 0000 00c0 fdd4 c3bf 0000 0080 8d71 8c3f
000001e0: 0000 00a0 bf89 9cbf 0000 0000 5361 acbf
000001f0: 0000 00c0 1daf a3bf 0000 0020 8fcd b9bf
00000200: 0000 0020 96d9 bc3f 0000 00c0 9cdf ac3f
00000210: 0000 0000 8c0d b1bf 0000 0000 1f01 bfbf
00000220: 0000 00e0 8b88 c53f 0000 0080 c745 c9bf
00000230: 0000 0040 5d4d 86bf 0000 0000 b739 bf3f
00000240: 0000 0000 c980 a5bf 0000 0000 662b cbbf
00000250: 0000 0020 eead c8bf 0000 00e0 3aca bd3f
00000260: 0000 00a0 e38d da3f 0000 00c0 1246 cf3f
00000270: 0000 0020 fdde c3bf 0000 00c0 cc6a a13f
00000280: 0000 0080 3462 bdbf 0000 0020 73c8 b2bf
00000290: 0000 0060 8007 bc3f 0000 00c0 fbb2 89bf
000002a0: 0000 00c0 a411 b5bf 0000 0080 e777 bcbf
000002b0: 0000 0040 7ac8 b3bf 0000 00a0 bd57 b73f
000002c0: 0000 0020 3f4c d03f 0000 0020 39de a23f
000002d0: 0000 0020 3c81 a7bf 0000 0000 f0d5 d03f
000002e0: 0000 0020 ef9d a13f 0000 0080 2f77 b2bf
000002f0: 0000 00e0 9e2c a83f 0000 0060 7037 6b3f
00000300: 0000 00c0 2e61 c3bf 0000 0040 a98f a33f
00000310: 0000 00e0 cd4f a7bf 0000 0020 b48c 88bf
00000320: 0000 0000 1b19 bf3f 0000 0060 6486 c4bf
00000330: 0000 0000 7cd6 25bf 0000 00a0 8677 be3f
00000340: 0000 0060 2be2 c5bf 0000 00e0 b5a6 cb3f
00000350: 0000 0000 0be2 adbf 0000 0000 88ec ad3f
00000360: 0000 00a0 8647 b03f 0000 0000 d28e b0bf
00000370: 0000 00e0 74d0 b7bf 0000 0020 ee0e b13f
00000380: 0000 0000 eed3 c53f 0000 0040 e783 d2bf
00000390: 0000 00a0 7f53 cc3f 0000 0040 dd2d b33f
000003a0: 0000 00c0 e3d5 9cbf 0000 00a0 281c c43f
000003b0: 0000 0060 2003 b73f 0000 0080 322d a13f
000003c0: 0000 00c0 28ee a1bf 0000 00c0 88ae a6bf
000003d0: 0000 00c0 8541 c5bf 0000 00e0 fd81 b7bf
000003e0: 0000 0000 b81d b93f 0000 00c0 5e42 b3bf
000003f0: 0000 00a0 6c34 aa3f 0000 00c0 1581 9dbf
-0.08573728799819946 0.13322828710079193 -0.008140004239976406 0.010459249839186668 -0.14284566044807434 0.07203934341669083 0.08519856631755829 -0.04733828827738762
0.1689879149198532 -0.12494941800832748 0.2264207899570465 0.0096531817689538 -0.2060292363166809 -0.0803917720913887 -0.07385031878948212 0.0818164125084877
-0.1368817836046219 -0.14162451028823853 -0.17549459636211395 -0.09787493944168091 0.027387743815779686 0.04679078608751297 -0.08434469252824783 -0.002903074026107788
-0.2543420195579529 -0.30916672945022583 0.003944577649235725 -0.07696662098169327 0.031217146664857864 -0.16890214383602142 -0.005677556619048119 0.14400582015514374
-0.16201844811439514 -0.01441200077533722 -0.025128645822405815 0.020922154188156128 -0.05621432885527611 -0.03442583605647087 0.19024492800235748 0.015344297513365746
-0.16797636449337006 0.09014428406953812 0.011681764386594296 0.3041195571422577 0.24086084961891174 -0.0389411561191082 -0.014082014560699463 -0.10986311733722687
0.17917487025260925 -0.3030255138874054 0.01805274933576584 0.19067707657814026 0.03553708270192146 0.0958876684308052 0.10214824974536896 -0.12733612954616547
-0.03693176805973053 0.08932114392518997 -0.1549374759197235 0.013888459652662277 -0.027869218960404396 -0.05543002486228943 -0.038445405662059784 -0.10079283267259598
0.1126951053738594 0.05639352649450302 -0.06661295890808105 -0.12111085653305054 0.16822956502437592 -0.19744199514389038 -0.010889748111367226 0.1219744086265564
-0.04199817776679993 -0.21226191520690918 -0.19280792772769928 0.11636703461408615 0.414910227060318 0.24432596564292908 -0.15524257719516754 0.03401794284582138
-0.11477974057197571 -0.07337111979722977 0.10948946326971054 -0.0125484149903059 -0.08230046927928925 -0.111204594373703 -0.07727779448032379 0.09118256717920303
0.2546537220478058 0.0368516780436039 -0.04590785875916481 0.2630577087402344 0.03440806642174721 -0.07213112711906433 0.047215428203344345 0.0033223337959498167
-0.1514032781124115 0.03820542246103287 -0.04553073272109032 -0.011987120844423771 0.12147682905197144 -0.16035132110118866 -0.00016660941764712334 0.11901132017374039
-0.17096464335918427 0.21602509915828705 -0.058365195989608765 0.05844521522521973 0.06359139829874039 -0.06467926502227783 -0.09302454441785812 0.06663406640291214
0.17053008079528809 -0.28930073976516724 0.22129817306995392 0.07491858303546906 -0.028159674257040024 0.157109335064888 0.0898914560675621 0.03354795277118683
-0.0350201353430748 -0.04430034011602402 -0.16606208682060242 -0.09182726591825485 0.09810972213745117 -0.07523147761821747 0.05118121579289436 -0.02881273254752159
