FACE_REC_3/data/embeddings/061_b36635a2.npy (npy, 1152 bytes, 1 tensors)

array f8 [128]
-0.02350044436752796 0.07807736098766327 0.10258070379495621 0.002425082726404071 -0.052214279770851135 -0.03454054147005081 -0.05556771904230118 -0.09153717756271362
0.15026910603046417 -0.05913646146655083 0.22309814393520355 -0.018245749175548553 -0.2514631748199463 0.016742631793022156 0.005092966835945845 0.14221802353858948
-0.14883388578891754 -0.0504472553730011 -0.16656599938869476 0.018702637404203415 -0.07479853928089142 0.059481240808963776 0.15519870817661285 -0.006335361395031214
-0.13929219543933868 -0.36649778485298157 -0.10003765672445297 -0.10164189338684082 0.09875524044036865 -0.12373215705156326 -0.08622652292251587 0.05177143216133118
-0.1576748788356781 -0.042225152254104614 0.05603471398353577 0.08274032920598984 -0.11515536159276962 -0.05184805393218994 0.24544580280780792 0.0969056710600853
-0.26319319009780884 -0.04032032936811447 0.006381495390087366 0.26360052824020386 0.3022906184196472 0.0598754845559597 0.06860970705747604 -0.10874293744564056
0.10976824164390564 -0.3356679677963257 0.12309018522500992 0.13424152135849 0.034397806972265244 0.1289125680923462 0.12264014035463333 -0.13591477274894714
0.02148185670375824 0.2022503912448883 -0.1726113110780716 0.06982282549142838 0.10074999183416367 -0.02908797562122345 0.042445600032806396 0.05865238234400749
0.21679167449474335 0.10398653894662857 -0.12733876705169678 -0.09474293887615204 0.14109165966510773 -0.179118812084198 -0.02562532015144825 0.13304579257965088
-0.07383821159601212 -0.19371646642684937 -0.31676220893859863 -0.026912296190857887 0.3844009339809418 0.10982297360897064 -0.1282312273979187 -0.013030891306698322
-0.11031515896320343 -0.09656554460525513 0.041351765394210815 0.07414819300174713 -0.08186934888362885 -0.012047451920807362 -0.08638036251068115 -0.004468000493943691
0.2605398893356323 -0.04820535331964493 0.03640168905258179 0.24214276671409607 -0.03149639815092087 -0.03147541731595993 0.031936194747686386 0.13500557839870453
-0.15077826380729675 -0.05854471027851105 -0.13916687667369843 -0.1046653464436531 0.052264563739299774 -0.08844399452209473 -0.01372114010155201 0.11484837532043457
-0.27579009532928467 0.22724474966526031 -0.02773488499224186 -0.05366438254714012 0.06691665202379227 -0.08759646862745285 -0.025466756895184517 -0.00514242285862565
0.19956855475902557 -0.29351872205734253 0.20996776223182678 0.20431597530841827 -0.00022415770217776299 0.0919683575630188 0.024665087461471558 0.04526399075984955
-0.03527004271745682 -0.02159196138381958 -0.1319108009338379 -0.09391440451145172 -0.00030753109604120255 0.005623364821076393 0.004751772619783878 0.012083776295185089
00000000: 0000 0020 8010 98bf 0000 00c0 e0fc b33f
00000010: 0000 00a0 ba42 ba3f 0000 0060 c4dd 633f
00000020: 0000 0080 d4bb aabf 0000 0040 4caf a1bf
00000030: 0000 0040 5f73 acbf 0000 0000 fb6e b7bf
00000040: 0000 00a0 043c c33f 0000 0060 2247 aebf
00000050: 0000 00e0 7a8e cc3f 0000 0080 03af 92bf
00000060: 0000 0000 f917 d0bf 0000 0000 fb24 913f
00000070: 0000 00e0 5cdc 743f 0000 0040 3334 c23f
00000080: 0000 0020 fd0c c3bf 0000 0000 39d4 a9bf
00000090: 0000 00e0 0852 c5bf 0000 00c0 c826 933f
000000a0: 0000 0040 ff25 b3bf 0000 0040 5374 ae3f
000000b0: 0000 0020 8ddd c33f 0000 00a0 1bf3 79bf
000000c0: 0000 00a0 53d4 c1bf 0000 0020 b374 d7bf
000000d0: 0000 0060 119c b9bf 0000 0000 3405 babf
000000e0: 0000 0000 0648 b93f 0000 0020 e9ac bfbf
000000f0: 0000 0000 f112 b6bf 0000 0000 c981 aa3f
00000100: 0000 00c0 b02e c4bf 0000 0000 899e a5bf
00000110: 0000 0000 95b0 ac3f 0000 0060 782e b53f
00000120: 0000 0060 d27a bdbf 0000 0000 d48b aabf
00000130: 0000 00a0 c46a cf3f 0000 0060 cfce b83f
00000140: 0000 0040 28d8 d0bf 0000 00c0 dda4 a4bf
00000150: 0000 00a0 7b23 7a3f 0000 00c0 d4de d03f
00000160: 0000 00c0 ba58 d33f 0000 00e0 ffa7 ae3f
00000170: 0000 00e0 6790 b13f 0000 00c0 93d6 bbbf
00000180: 0000 0080 c519 bc3f 0000 0080 957b d5bf
00000190: 0000 00a0 d682 bf3f 0000 0080 d32e c13f
000001a0: 0000 00e0 969c a13f 0000 0000 3580 c03f
000001b0: 0000 0020 5865 bf3f 0000 00c0 a765 c1bf
000001c0: 0000 0000 57ff 953f 0000 0040 57e3 c93f
000001d0: 0000 00a0 2018 c6bf 0000 00a0 e8df b13f
000001e0: 0000 0060 c0ca b93f 0000 0000 3dc9 9dbf
000001f0: 0000 0000 6ebb a53f 0000 0060 af07 ae3f
00000200: 0000 0060 d4bf cb3f 0000 00a0 dc9e ba3f
00000210: 0000 0000 a34c c0bf 0000 00c0 1241 b8bf
00000220: 0000 00a0 4a0f c23f 0000 0080 5ded c6bf
00000230: 0000 0020 863d 9abf 0000 0000 a507 c13f
00000240: 0000 00a0 0fe7 b2bf 0000 0080 b3cb c8bf
00000250: 0000 0000 d545 d4bf 0000 00a0 e58e 9bbf
00000260: 0000 0060 069a d83f 0000 00c0 5b1d bc3f
00000270: 0000 0080 e169 c0bf 0000 00a0 f0af 8abf
00000280: 0000 0040 9d3d bcbf 0000 0000 85b8 b8bf
00000290: 0000 0000 0f2c a53f 0000 0040 60fb b23f
000002a0: 0000 00c0 63f5 b4bf 0000 00a0 55ac 88bf
000002b0: 0000 0000 061d b6bf 0000 00c0 094d 72bf
000002c0: 0000 0080 afac d03f 0000 0040 5fae a8bf
000002d0: 0000 0000 3ea3 a23f 0000 00c0 88fe ce3f
000002e0: 0000 00c0 4b20 a0bf 0000 00c0 8b1d a0bf
000002f0: 0000 00e0 f059 a03f 0000 00e0 dc47 c13f
00000300: 0000 00c0 b34c c3bf 0000 0080 92f9 adbf
00000310: 0000 0060 38d0 c1bf 0000 0020 59cb babf
00000320: 0000 00c0 6bc2 aa3f 0000 0000 44a4 b6bf
00000330: 0000 0040 d419 8cbf 0000 0000 b466 bd3f
00000340: 0000 0080 8ba6 d1bf 0000 0020 5b16 cd3f
00000350: 0000 00a0 8866 9cbf 0000 00e0 e579 abbf
00000360: 0000 0020 7321 b13f 0000 00e0 b86c b6bf
00000370: 0000 0020 f513 9abf 0000 00a0 3810 75bf
00000380: 0000 0060 768b c93f 0000 00c0 02c9 d2bf
00000390: 0000 0040 39e0 ca3f 0000 00a0 0627 ca3f
000003a0: 0000 0000 7c61 2dbf 0000 0000 3d8b b73f
000003b0: 0000 0000 ce41 993f 0000 0080 d72c a73f
000003c0: 0000 0040 ea0e a2bf 0000 0000 341c 96bf
000003d0: 0000 0000 74e2 c0bf 0000 0040 c60a b8bf
000003e0: 0000 0000 8427 34bf 0000 0080 8608 773f
000003f0: 0000 0040 9876 733f 0000 0000 61bf 883f
