FACE_REC_3/data/embeddings/068_b778f382.npy (npy, 1152 bytes, 1 tensors)

array f8 [128]
0	0xbfc36b9640000000	-0.15172079205513
1	0x3fbe71d1a0000000	0.11892423778772354
2	0x3f24c60400000000	0.00015848921611905098
3	0xbfa9083400000000	-0.04889070987701416
4	0xbf7f953a00000000	-0.007710672914981842
5	0xbfb9589e00000000	-0.09900844097137451
6	0x3faf76e0c0000000	0.061453841626644135
7	0xbfb9d456a0000000	-0.10089627653360367
8	0x3fc6c76880000000	0.17796045541763306
9	0xbfa61e46e0000000	-0.04319974407553673
10	0x3fd1f086e0000000	0.2803055942058563
11	0xbf66d4ae00000000	-0.0027869604527950287
12	0xbfcf40f620000000	-0.24416996538639069
13	0xbfbb67f820000000	-0.1070551946759224
14	0x3f6afa6c00000000	0.003293238580226898
15	0x3fb6634f60000000	0.08745285123586655
16	0xbfc7129fc0000000	-0.18025586009025574
17	0xbfc41ae700000000	-0.15707099437713623
18	0xbfaacba6c0000000	-0.0523349866271019
19	0xbfbf294bc0000000	-0.12172387540340424
20	0xbf7ca951c0000000	-0.0069974130019545555
21	0x3f72487880000000	0.004463644698262215
22	0x3f79ac6dc0000000	0.006267956458032131
23	0x3fb9251bc0000000	0.09822247922420502
24	0xbfb51f1780000000	-0.08250567317008972
25	0xbfd302e3c0000000	-0.2970513701438904
26	0xbfb8bc2e40000000	-0.09662140905857086
27	0xbfbe902080000000	-0.1193867027759552
28	0x3fa277d840000000	0.03607059270143509
29	0xbfadbeda80000000	-0.05809672176837921
30	0x3f99f34f00000000	0.02534221112728119
31	0x3fb925c3e0000000	0.09823250025510788
32	0xbfc8b3c060000000	-0.19298557937145233
33	0xbfbc278520000000	-0.10997802764177322
34	0x3f94dc0dc0000000	0.020370688289403915
35	0x3fb02171e0000000	0.0630103275179863
36	0x3fac093560000000	0.05475775524973869
37	0x3f789ed2c0000000	0.006010840646922588
38	0x3fc79d0360000000	0.18447916209697723
39	0x3fa3663960000000	0.037889283150434494
40	0xbfb6383d80000000	-0.08679565787315369
41	0xbfaf001980000000	-0.060547634959220886
42	0x3facace040000000	0.05600643903017044
43	0x3fd406b5c0000000	0.3129095435142517
44	0x3fc998c620000000	0.19997479021549225
45	0x3f302dc400000000	0.00024686846882104874
46	0x3fa1977800000000	0.03435873985290527
47	0xbfaefe7b60000000	-0.06053529307246208
48	0x3f8064a9c0000000	0.008004499599337578
49	0xbfca0a3220000000	-0.20343615114688873
50	0x3fb3af8600000000	0.0768970251083374
51	0x3fbe737980000000	0.11894950270652771
52	0x3fc052f440000000	0.12753155827522278
53	0x3faf942520000000	0.06167713180184364
54	0x3fa6c461e0000000	0.044467028230428696
55	0xbfcd2bba40000000	-0.22789695858955383
56	0xbfa8427e40000000	-0.04738230258226395
57	0x3fbf774800000000	0.12291383743286133
58	0xbfc89c8b40000000	-0.19227734208106995
59	0x3fa85192c0000000	0.047497354447841644
60	0x3f96e6bb60000000	0.022364547476172447
61	0xbfa8b85dc0000000	-0.048281602561473846
62	0xbfb3db2140000000	-0.07756240665912628
63	0xbfa4323540000000	-0.039445556700229645
64	0x3fd2554340000000	0.2864540219306946
65	0x3fc45be900000000	0.15905487537384033
66	0xbfbfe660e0000000	-0.12460904568433762
67	0xbfc4007ba0000000	-0.15626473724842072
68	0x3fcdaea1e0000000	0.23189185559749603
69	0xbfc66579e0000000	-0.174971804022789
70	0xbfb60d5420000000	-0.08614087849855423
71	0x3fb601cb00000000	0.0859648585319519
72	0xbfb77518c0000000	-0.09163050353527069
73	0xbfbfd524a0000000	-0.1243460550904274
74	0xbfd09c8a20000000	-0.2595544159412384
75	0x3fb56644e0000000	0.0835917517542839
76	0x3fd74a09e0000000	0.36389395594596863
77	0x3fc3819ba0000000	0.15239281952381134
78	0xbfc5399d80000000	-0.16582077741622925
79	0x3fb1c1e720000000	0.06936497241258621
80	0xbfc4dd0620000000	-0.1629951149225235
81	0xbf981510e0000000	-0.02351786009967327
82	0x3f90f7efc0000000	0.0165708027780056
83	0x3fae6d4100000000	0.05942729115486145
84	0xbfbbee9c60000000	-0.10910966247320175
85	0x3fad3f1820000000	0.05712199583649635
86	0xbfb70d5aa0000000	-0.09004751592874527
87	0xbf8443c500000000	-0.009894885122776031
88	0x3fbc2ca580000000	0.11005625128746033
89	0x3fc0d13720000000	0.1313847452402115
90	0xbfbae82260000000	-0.10510458797216415
91	0x3fc9c4f840000000	0.20132353901863098
92	0xbfa733f920000000	-0.045318398624658585
93	0x3f9df80d40000000	0.02926655486226082
94	0x3fbe786ac0000000	0.11902491748332977
95	0x3f8f3c1980000000	0.015251349657773972
96	0xbfaa34ff20000000	-0.05118558183312416
97	0xbfa397e300000000	-0.03826817870140076
98	0xbfc410dac0000000	-0.15676435828208923
99	0xbfb4901900000000	-0.08032375574111938
100	0xbf97d1b000000000	-0.023260831832885742
101	0xbfbd1b2ca0000000	-0.1136958971619606
102	0xbf8e2c3000000000	-0.014732718467712402
103	0x3fbe9ceb60000000	0.11958190053701401
104	0xbfc758d1e0000000	-0.18239806592464447
105	0x3fbd2b19e0000000	0.11393892019987106
106	0xbf8cfe5f20000000	-0.014157050289213657
107	0x3f8bd7c4e0000000	0.013595140539109707
108	0xbfaf8666e0000000	-0.061572279781103134
109	0x3fa48344c0000000	0.040063999593257904
110	0x3f871b8800000000	0.01128298044204712
111	0x3f7bb494a0000000	0.006764011923223734
112	0x3fc1e52420000000	0.13980533182621002
113	0xbfd4bebae0000000	-0.3241412341594696
114	0x3fc9392b20000000	0.19705714285373688
115	0x3fc1021ae0000000	0.13287673890590668
116	0x3f4e5c3c80000000	0.000926522770896554
117	0x3fc89d6e00000000	0.19230437278747559
118	0x3f9d487a20000000	0.0285967905074358
119	0x3fb3abd380000000	0.0768406093120575
120	0xbf882e51c0000000	-0.011807097122073174
121	0xbfb389e3e0000000	-0.07632278650999069
122	0xbfc366a5e0000000	-0.15157006680965424
123	0xbf9f805ce0000000	-0.03076310269534588
124	0x3f865c54c0000000	0.01091829501092434
125	0xbfaade1a20000000	-0.05247575417160988
126	0x3fba8085a0000000	0.10352358967065811
127	0x3fb0b55620000000	0.06526697427034378
