FACE_REC_3/data/embeddings/070_b83e7724.npy (npy, 1152 bytes, 1 tensors)

array f8 [128]
000000 00 00 00 20 28 d1 ba bf 00 00 00 40 1a c4 ca 3f
       -0.10475397855043411 0.2091095745563507
000010 00 00 00 00 96 2e c0 3f 00 00 00 80 31 c7 c2 bf
       0.12642168998718262 -0.14670389890670776
000020 00 00 00 00 69 63 c6 bf 00 00 00 c0 f8 46 a9 3f
       -0.17490875720977783 0.04936959594488144
000030 00 00 00 80 94 54 73 3f 00 00 00 e0 b6 b0 c0 bf
       0.004719333723187447 -0.1303928941488266
000040 00 00 00 e0 9f a6 ca 3f 00 00 00 80 50 4d bd bf
       0.20820997655391693 -0.11446097493171692
000050 00 00 00 80 aa 7c c1 3f 00 00 00 80 8a b4 c1 bf
       0.1366170048713684 -0.13832217454910278
000060 00 00 00 00 64 cc d0 bf 00 00 00 c0 41 d4 9e 3f
       -0.26247501373291016 0.030106570571660995
000070 00 00 00 40 f9 ef bb bf 00 00 00 20 39 ce ca 3f
       -0.10913045704364777 0.2094184309244156
000080 00 00 00 c0 66 80 c2 bf 00 00 00 e0 e3 66 c7 bf
       -0.14454349875450134 -0.18282745778560638
000090 00 00 00 40 8b 7e a5 bf 00 00 00 c0 e5 48 b6 bf
       -0.04198107868432999 -0.08704982697963715
0000a0 00 00 00 a0 2c 1b c0 3f 00 00 00 60 e3 a2 93 3f
       0.1258292943239212 0.0191760566085577
0000b0 00 00 00 00 a3 40 99 3f 00 00 00 00 c4 4c b7 3f
       0.024660632014274597 0.09101510047912598
0000c0 00 00 00 c0 e8 29 cc bf 00 00 00 20 15 e8 d2 bf
       -0.22002896666526794 -0.2954151928424835
0000d0 00 00 00 a0 92 6a b3 bf 00 00 00 20 c3 40 9c bf
       -0.07584492117166519 -0.02759079821407795
0000e0 00 00 00 c0 89 f5 b1 bf 00 00 00 00 44 68 bc bf
       -0.07015286386013031 -0.11096596717834473
0000f0 00 00 00 80 1f 45 93 3f 00 00 00 80 e6 5d bb 3f
       0.01881837099790573 0.10690155625343323
000100 00 00 00 80 39 06 c3 bf 00 00 00 20 a4 e4 a7 3f
       -0.14862746000289917 0.04666626825928688
000110 00 00 00 80 1d e1 87 bf 00 00 00 00 31 db c2 3f
       -0.011659841984510422 0.147314190864563
000120 00 00 00 40 ff 27 c0 bf 00 00 00 60 cd b8 c8 bf
       -0.12622061371803284 -0.1931397169828415
000130 00 00 00 e0 8e bc c4 3f 00 00 00 c0 64 b9 b4 3f
       0.16200433671474457 0.08095388114452362
000140 00 00 00 80 ff d6 cc bf 00 00 00 80 de af 6d bf
       -0.22531121969223022 -0.0036239000037312508
000150 00 00 00 40 88 ca b7 3f 00 00 00 40 12 61 d2 3f
       0.09293414652347565 0.2871747612953186
000160 00 00 00 80 4a 34 ca 3f 00 00 00 60 ce cf 95 3f
       0.20472079515457153 0.021300530061125755
000170 00 00 00 c0 da 16 ac 3f 00 00 00 60 59 b8 a7 bf
       0.05486186593770981 -0.0463283471763134
000180 00 00 00 a0 a8 93 c1 3f 00 00 00 80 a1 6d d3 bf
       0.1373186856508255 -0.3035663366317749
000190 00 00 00 c0 ad 1b 9c 3f 00 00 00 80 6b a0 c5 3f
       0.027449335902929306 0.1689581274986267
0001a0 00 00 00 e0 c0 e9 9b 3f 00 00 00 80 e1 c7 b3 3f
       0.02725888602435589 0.07726868987083435
0001b0 00 00 00 00 32 2d c4 3f 00 00 00 20 2f e1 c7 bf
       0.15762925148010254 -0.18655957281589508
0001c0 00 00 00 00 28 81 9d 3f 00 00 00 c0 05 88 bc 3f
       0.02881300449371338 0.11145053803920746
0001d0 00 00 00 e0 13 6f c7 bf 00 00 00 00 9a 68 9f 3f
       -0.18307732045650482 0.030672460794448853
0001e0 00 00 00 20 98 e1 b2 3f 00 00 00 40 d0 9b c6 bf
       0.07375479489564896 -0.17663004994392395
0001f0 00 00 00 00 3c ab 7e bf 00 00 00 20 2c ad c4 bf
       -0.0074875205755233765 -0.16153480112552643
000200 00 00 00 40 c7 17 cc 3f 00 00 00 c0 a8 b6 ca 3f
       0.219475656747818 0.2086993157863617
000210 00 00 00 a0 9e 0e b4 bf 00 00 00 a0 26 fe b5 bf
       -0.0783480778336525 -0.08590928465127945
000220 00 00 00 60 93 1e d2 3f 00 00 00 20 0b 10 b7 bf
       0.2831161916255951 -0.09008855372667313
000230 00 00 00 20 78 7a b0 bf 00 00 00 a0 df 83 b8 3f
       -0.06436873227357864 0.0957622304558754
000240 00 00 00 20 99 1e bb bf 00 00 00 c0 ae f1 c3 bf
       -0.10593564063310623 -0.155813068151474
000250 00 00 00 80 15 33 c2 bf 00 00 00 80 1e a1 8b bf
       -0.14218395948410034 -0.013490904122591019
000260 00 00 00 00 f3 d1 d7 3f 00 00 00 c0 19 64 ca 3f
       0.3721892833709717 0.20617982745170593
000270 00 00 00 60 ea e7 bc bf 00 00 00 80 96 29 62 bf
       -0.11291375011205673 -0.0022170962765812874
000280 00 00 00 80 e5 f1 a6 bf 00 00 00 c0 00 92 b2 3f
       -0.044814273715019226 0.07254032790660858
000290 00 00 00 60 dd ee 70 bf 00 00 00 40 e8 29 c0 3f
       -0.0041340491734445095 0.12627890706062317
0002a0 00 00 00 20 5d 7e a1 bf 00 00 00 a0 16 17 93 3f
       -0.034167204052209854 0.018642762675881386
0002b0 00 00 00 20 73 9c bc bf 00 00 00 00 42 d5 99 3f
       -0.11176223307847977 0.02522757649421692
0002c0 00 00 00 00 5f f0 ca 3f 00 00 00 60 f1 37 b7 bf
       0.21046054363250732 -0.09069737046957016
0002d0 00 00 00 80 be d2 9a bf 00 00 00 e0 28 bf d2 3f
       -0.026194550096988678 0.2929174602031708
0002e0 00 00 00 60 4f 91 a1 3f 00 00 00 00 ef 7f b7 bf
       0.03431175276637077 -0.09179586172103882
0002f0 00 00 00 c0 56 4a 90 3f 00 00 00 40 d5 9b a0 bf
       0.015908580273389816 -0.032438911497592926
000300 00 00 00 60 98 ff c6 bf 00 00 00 c0 70 dc a7 3f
       -0.1796751469373703 0.04660370200872421
000310 00 00 00 a0 ae df bf bf 00 00 00 60 3e c2 b1 bf
       -0.1245068684220314 -0.06937017291784286
000320 00 00 00 c0 e6 fc 90 3f 00 00 00 00 2b 33 c0 bf
       0.01658974215388298 -0.12656152248382568
000330 00 00 00 00 48 64 a0 bf 00 00 00 40 53 31 ab 3f
       -0.032015085220336914 0.053110696375370026
000340 00 00 00 c0 17 19 cc bf 00 00 00 c0 c0 31 c3 3f
       -0.21951577067375183 0.1499558389186859
000350 00 00 00 60 bd b6 9e bf 00 00 00 60 5a 62 a8 bf
       -0.029993971809744835 -0.04762537404894829
000360 00 00 00 40 56 7c c1 bf 00 00 00 e0 5a 23 b6 bf
       -0.13660696148872375 -0.08647697418928146
000370 00 00 00 e0 3c 32 b5 bf 00 00 00 80 6b f9 bb 3f
       -0.0827978178858757 0.10927459597587585
000380 00 00 00 40 2a f6 c5 3f 00 00 00 e0 2d 7b d3 bf
       0.17157486081123352 -0.3043932616710663
000390 00 00 00 20 cd 79 c4 3f 00 00 00 a0 9a f9 c1 3f
       0.1599670797586441 0.1404298096895218
0003a0 00 00 00 20 30 30 a1 bf 00 00 00 40 cb 9d c7 3f
       -0.03357077017426491 0.1845029890537262
0003b0 00 00 00 60 be 7c b4 3f 00 00 00 00 9a 68 bb 3f
       0.08002843707799911 0.10706484317779541
0003c0 00 00 00 80 62 21 aa 3f 00 00 00 c0 3e f0 c0 bf
       0.05103595554828644 -0.1323316991329193
0003d0 00 00 00 40 89 07 b0 bf 00 00 00 80 d6 63 c0 bf
       -0.06261499226093292 -0.12804681062698364
0003e0 00 00 00 c0 eb 9a b2 3f 00 00 00 e0 7f 4f 8a bf
       0.0726764053106308 -0.01284694578498602
0003f0 00 00 00 60 08 82 a7 3f 00 00 00 20 3b 22 b2 3f
       0.0459139458835125 0.07083482295274734
