FACE_REC_3/data/embeddings/073_b0bfca72.npy (npy, 1152 bytes, 1 tensors)

array f8 [128]
00000000: 0000 00e0 c0da bbbf 0000 00c0 43d9 c13f
00000010: 0000 0060 ea36 b13f 0000 0040 06e9 babf
00000020: 0000 0040 fa64 b0bf 0000 0020 2a92 9d3f
00000030: 0000 0040 a906 adbf 0000 0000 4681 b0bf
00000040: 0000 00c0 66d5 d23f 0000 0000 9452 b4bf
00000050: 0000 00c0 2fc2 d13f 0000 00c0 0100 91bf
00000060: 0000 0000 a5ba d1bf 0000 00a0 fa97 9a3f
00000070: 0000 0080 103c c1bf 0000 0080 e0c3 c33f
00000080: 0000 0000 afa8 cabf 0000 0020 5852 91bf
00000090: 0000 00c0 251d b5bf 0000 0020 93bd b9bf
000000a0: 0000 0000 3652 c13f 0000 0060 e9e9 af3f
000000b0: 0000 0080 44d1 953f 0000 00a0 e548 bf3f
000000c0: 0000 0060 81ee cabf 0000 0060 9188 d3bf
000000d0: 0000 0000 cb40 b0bf 0000 0060 386c a9bf
000000e0: 0000 0000 d0b2 a83f 0000 0000 fca2 c6bf
000000f0: 0000 0000 c224 aa3f 0000 00a0 49f4 b83f
00000100: 0000 0040 89f5 c5bf 0000 00c0 1106 b23f
00000110: 0000 0000 2334 9ebf 0000 0040 522c b63f
00000120: 0000 0020 1630 babf 0000 0080 c9f3 b7bf
00000130: 0000 0040 86c0 c13f 0000 0080 5719 9a3f
00000140: 0000 0000 f07d c6bf 0000 00a0 9a20 afbf
00000150: 0000 00c0 2328 85bf 0000 00c0 ed79 cc3f
00000160: 0000 00e0 ff66 d13f 0000 0040 5908 8abf
00000170: 0000 0080 698d 7c3f 0000 0080 576c c0bf
00000180: 0000 0020 69c4 c93f 0000 0040 8bfc d2bf
00000190: 0000 0000 5769 65bf 0000 0000 dce0 ce3f
000001a0: 0000 00c0 015e 9cbf 0000 00e0 0a41 bf3f
000001b0: 0000 00a0 e931 c33f 0000 0000 0710 c2bf
000001c0: 0000 00a0 356d a4bf 0000 0000 d471 c23f
000001d0: 0000 0080 3db8 c6bf 0000 00c0 d8ff 81bf
000001e0: 0000 00a0 4745 8bbf 0000 0000 cb0b b6bf
000001f0: 0000 0040 7af2 a6bf 0000 0020 410c c1bf
00000200: 0000 0020 11f1 b33f 0000 00e0 7df6 c03f
00000210: 0000 00e0 44b5 c3bf 0000 00a0 cd9c c6bf
00000220: 0000 0040 7029 c83f 0000 00c0 97dd c9bf
00000230: 0000 0040 e143 a03f 0000 0040 dc53 ca3f
00000240: 0000 00c0 1abe bcbf 0000 00a0 7745 ccbf
00000250: 0000 00c0 cccb cdbf 0000 0080 6979 9a3f
00000260: 0000 0020 b376 d83f 0000 00e0 eac7 c23f
00000270: 0000 0000 c288 a2bf 0000 0060 014c b13f
00000280: 0000 0040 0f76 a6bf 0000 0060 1339 b0bf
00000290: 0000 00c0 3013 a8bf 0000 0080 37e9 b73f
000002a0: 0000 0040 9a7f b0bf 0000 0080 de1f 753f
000002b0: 0000 0060 67fc a6bf 0000 00e0 6a41 bd3f
000002c0: 0000 00c0 3411 be3f 0000 00a0 15a3 a3bf
000002d0: 0000 0080 0c92 a63f 0000 00e0 fe44 d53f
000002e0: 0000 0060 d0f8 b0bf 0000 0040 6706 93bf
000002f0: 0000 00c0 4a9e 7dbf 0000 0000 4c3d bb3f
00000300: 0000 00e0 709b cabf 0000 0080 d57a 973f
00000310: 0000 0080 cf30 8ebf 0000 0000 0eee a1bf
00000320: 0000 0040 f88a ae3f 0000 0020 aca5 b0bf
00000330: 0000 0040 5578 a53f 0000 0080 7c5a a23f
00000340: 0000 0060 884e bdbf 0000 00c0 7b46 ca3f
00000350: 0000 00a0 046c aabf 0000 0080 cb19 af3f
00000360: 0000 0080 f34d 953f 0000 00e0 9466 aabf
00000370: 0000 0040 56d8 b7bf 0000 00c0 1188 7dbf
00000380: 0000 00c0 87bb c83f 0000 0060 8d37 d3bf
00000390: 0000 0060 6ffa c73f 0000 0000 ace5 ad3f
000003a0: 0000 00c0 9d5b 99bf 0000 00c0 8c4e c03f
000003b0: 0000 00c0 560d 743f 0000 00a0 b2fd c33f
000003c0: 0000 0000 a706 a8bf 0000 0060 1315 afbf
000003d0: 0000 0080 241e b0bf 0000 0020 9ff2 93bf
000003e0: 0000 00c0 5789 7dbf 0000 0040 cad8 b1bf
000003f0: 0000 0080 debb a4bf 0000 00a0 9916 b8bf
-0.10880666226148605 0.13944289088249207 0.06724419444799423 -0.10511817038059235 -0.06404079496860504 0.02887788601219654 -0.05669144541025162 -0.06447255611419678
0.2942749857902527 -0.07938504219055176 0.2774772047996521 -0.01660158857703209 -0.27701687812805176 0.025970378890633583 -0.1346455216407776 0.15441519021987915
-0.2082728147506714 -0.016915680840611458 -0.08247600495815277 -0.10054893046617508 0.13532137870788574 0.06233147904276848 0.021306104958057404 0.12220606952905655
-0.21040360629558563 -0.3052104413509369 -0.0634886622428894 -0.049653779715299606 0.04823923110961914 -0.1768488883972168 0.05106168985366821 0.09747753292322159
-0.17155566811561584 0.07040511071681976 -0.029495760798454285 0.08661378920078278 -0.10229624062776566 -0.09356364607810974 0.1386878788471222 0.025487296283245087
-0.1757183074951172 -0.0607956238090992 -0.01033046655356884 0.2224709689617157 0.2719115912914276 -0.012711236253380775 0.006970798596739769 -0.1283063292503357
0.20130647718906403 -0.2966640591621399 -0.0026137065142393112 0.24123716354370117 -0.02770235762000084 0.12208621948957443 0.1499607115983963 -0.14111411571502686
-0.03989570215344429 0.14409875869750977 -0.17749756574630737 -0.00878877006471157 -0.013315734453499317 -0.0861174464225769 -0.044818706810474396 -0.133186474442482
0.07789713889360428 0.1325223296880722 -0.1539693921804428 -0.17666025459766388 0.18876460194587708 -0.20207497477531433 0.03176788240671158 0.20568421483039856
-0.11227576434612274 -0.2208699733018875 -0.23278197646141052 0.025853775441646576 0.38224485516548157 0.14672599732875824 -0.03619962930679321 0.06756599992513657
-0.04386947304010391 -0.06337090581655502 -0.04702141135931015 0.09340235590934753 -0.0644470602273941 0.0051573459059000015 -0.04489443823695183 0.11427944153547287
0.1174500435590744 -0.038353610783815384 0.044083014130592346 0.3323361575603485 -0.06629659980535507 -0.018579114228487015 -0.0072310371324419975 0.10640406608581543
-0.20786868035793304 0.022929511964321136 -0.014741536229848862 -0.03501933813095093 0.059654004871845245 -0.06502795964479446 0.04193369299173355 0.03584660589694977
-0.11447956413030624 0.2052759826183319 -0.05160536244511604 0.060743674635887146 0.020805172622203827 -0.05156388506293297 -0.09314478933811188 -0.007209843955934048
0.19322296977043152 -0.3002656400203705 0.18733017146587372 0.058392882347106934 -0.024763550609350204 0.12739714980125427 0.004895533435046673 0.156179741024971
-0.046925753355026245 -0.06070766970515251 -0.0629599392414093 -0.01948021538555622 -0.007211058400571346 -0.06971420347690582 -0.04049582779407501 -0.09409485012292862
