FACE_REC_3/data/embeddings/076_b53060b4.npy (npy, 1152 bytes, 1 tensors)

array f8 [128]
0	0xbfb9a42fc0000000	-0.10016153752803802
1	0x3fbcc88d20000000	0.11243516951799393
2	0x3fbb0a8c80000000	0.10562971234321594
3	0xbf90c17d20000000	-0.016363101080060005
4	0xbfca414d40000000	-0.2051178514957428
5	0xbfa407a0e0000000	-0.03912070021033287
6	0xbfa8ace3e0000000	-0.048194047063589096
7	0xbfa8cda0c0000000	-0.04844381660223007
8	0x3fc22a3140000000	0.14191260933876038
9	0xbfbaf6fc80000000	-0.10533121228218079
10	0x3fc490c640000000	0.16066816449165344
11	0xbfaab53f60000000	-0.05216405913233757
12	0xbfcf08c140000000	-0.2424546778202057
13	0xbf95975160000000	-0.021085044369101524
14	0x3f4ca25a00000000	0.0008738460019230843
15	0x3fb81c48c0000000	0.09418158233165741
16	0xbfc7638140000000	-0.18272414803504944
17	0xbfc3b45500000000	-0.15394079685211182
18	0xbfbb657100000000	-0.10701662302017212
19	0xbfc2e97440000000	-0.14774945378303528
20	0x3f9cf84e60000000	0.028290962800383568
21	0x3fb078fce0000000	0.06434612721204758
22	0xbfa1007400000000	-0.03320658206939697
23	0x3f943b8ec0000000	0.019758444279432297
24	0xbfc5fd90e0000000	-0.17180071771144867
25	0xbfd2a5d220000000	-0.2913708984851837
26	0xbfb28b0120000000	-0.07243353873491287
27	0xbfb1e71ec0000000	-0.06993286311626434
28	0x3fc9fbf800000000	0.2030019760131836
29	0xbfc92dad00000000	-0.19670641422271729
30	0x3f7d1c9280000000	0.0071073267608881
31	0x3fb07592c0000000	0.06429402530193329
32	0xbfc4644ac0000000	-0.15931066870689392
33	0xbfb5879f00000000	-0.08410066366195679
34	0x3f917ddd40000000	0.017081696540117264
35	0x3fbd089360000000	0.11341210454702377
36	0xbf43dad600000000	-0.0006059212610125542
37	0xbfb769b020000000	-0.09145642071962357
38	0x3fceb5b7e0000000	0.23992060124874115
39	0x3fa1d06740000000	0.03479311615228653
40	0xbfc7f1ef00000000	-0.18707072734832764
41	0xbf9be0de80000000	-0.02722499519586563
42	0x3fb0e423e0000000	0.06598114222288132
43	0x3fd3c61be0000000	0.30896660685539246
44	0x3fc6e56600000000	0.17887568473815918
45	0x3fb0e27d60000000	0.06595595926046371
46	0xbf6b43f900000000	-0.003328310325741768
47	0x3f991e41e0000000	0.024529485031962395
48	0x3fc8253180000000	0.18863505125045776
49	0xbfd13cc7c0000000	-0.26933473348617554
50	0x3fb1c645e0000000	0.06943165510892868
51	0x3fc86f0c00000000	0.1908888816833496
52	0x3fb0ea8360000000	0.06607838720083237
53	0x3fb1bc9fc0000000	0.06928442418575287
54	0x3fc67d58c0000000	0.17570027709007263
55	0xbfd031f800000000	-0.2530498504638672
56	0x3fa5ff1e40000000	0.04296202212572098
57	0x3fc561d060000000	0.16704754531383514
58	0xbfc40eea00000000	-0.15670514106750488
59	0x3fbaad2140000000	0.10420425236225128
60	0x3fb745b540000000	0.09090740978717804
61	0xbfb72c9000000000	-0.09052371978759766
62	0x3f9e4cdd40000000	0.02959008887410164
63	0xbf9ffe35e0000000	-0.03124317340552807
64	0x3fc775eaa0000000	0.18328602612018585
65	0x3f85e21260000000	0.010685103945434093
66	0xbfa18bd640000000	-0.034269995987415314
67	0xbfbd328760000000	-0.11405225843191147
68	0x3fc31ed8e0000000	0.14937888085842133
69	0xbfc6b1b600000000	-0.17729830741882324
70	0xbfa798ede0000000	-0.04608863219618797
71	0x3fbf3592c0000000	0.12191121280193329
72	0xbfb8570440000000	-0.0950777679681778
73	0xbf9c509440000000	-0.027651134878396988
74	0xbfd4efb840000000	-0.32713133096694946
75	0xbf98465740000000	-0.023705828934907913
76	0x3fda411180000000	0.4102214574813843
77	0x3fbf42b280000000	0.12211146950721741
78	0xbfb96491c0000000	-0.09919081628322601
79	0x3f9e0d20c0000000	0.029346954077482224
80	0x3f8cd8cce0000000	0.014085388742387295
81	0xbfaaf77aa0000000	-0.05266936495900154
82	0x3fb51f39e0000000	0.08250772207975388
83	0x3fa6149680000000	0.04312582314014435
84	0xbfc3ac4b40000000	-0.1536954939365387
85	0x3f463bb600000000	0.0006785048171877861
86	0xbfbb504b60000000	-0.10669394582509995
87	0x3fa7c3a2e0000000	0.046414460986852646
88	0x3fc7cc1a00000000	0.18591618537902832
89	0x3fb7235a40000000	0.09038318693637848
90	0x3f92906aa0000000	0.018129030242562294
91	0x3fca0c4ac0000000	0.20350012183189392
92	0x3f99c9fc00000000	0.025184571743011475
93	0x3f94b92840000000	0.020237568765878677
94	0x3fab441bc0000000	0.05325400084257126
95	0xbf970b6da0000000	-0.02250453270971775
96	0xbfc2963060000000	-0.14520840346813202
97	0xbfbc0813a0000000	-0.10949824005365372
98	0xbfa4af7f40000000	-0.040401436388492584
99	0xbf9148c2e0000000	-0.01687912456691265
100	0x3fb709e3a0000000	0.0899946466088295
101	0xbfc5f46240000000	-0.17152050137519836
102	0xbf85bafa40000000	-0.010610537603497505
103	0x3fc16ac1e0000000	0.13607047498226166
104	0xbfce8955c0000000	-0.23856613039970398
105	0x3fbbdf2720000000	0.10887379199266434
106	0xbfa18189e0000000	-0.034191425889730453
107	0x3f9dcdf3a0000000	0.029105955734848976
108	0xbfb59285a0000000	-0.08426699787378311
109	0xbf57cc2740000000	-0.0014524825382977724
110	0xbfbcc79fa0000000	-0.11242101341485977
111	0x3fb48507e0000000	0.0801548883318901
112	0x3fccf537c0000000	0.22623345255851746
113	0xbfd29f06a0000000	-0.29095616936683655
114	0x3fc638dce0000000	0.17361031472682953
115	0x3fcce2eee0000000	0.22567544877529144
116	0xbfaa827660000000	-0.05177659913897514
117	0x3fb37e1a80000000	0.07614293694496155
118	0x3fb56ba5c0000000	0.08367381989955902
119	0xbf62a80200000000	-0.0022773779928684235
120	0xbfa3db7d60000000	-0.03878394886851311
121	0xbf9aaa7f60000000	-0.026041021570563316
122	0xbfbe7361a0000000	-0.1189480796456337
123	0xbfbf2bef40000000	-0.12176413834095001
124	0xbf95f33240000000	-0.021435532718896866
125	0xbfc1fe6ae0000000	-0.14057670533657074
126	0x3fa4029aa0000000	0.0390823669731617
127	0x3fad16f420000000	0.056815747171640396
