FACE_REC_3/data/embeddings/078_b7114bcb.npy (npy, 1152 bytes, 1 tensors)

array f8 [128]
-0.1314915418624878 0.1485009342432022 0.15715046226978302 0.03768213093280792 -0.15187479555606842 -0.0580827072262764 -0.043759606778621674 -0.10973023623228073
0.10545967519283295 -0.11499549448490143 0.2268722951412201 -0.04301000386476517 -0.25270363688468933 0.062315747141838074 -0.04780076444149017 0.054035477340221405
-0.05722524970769882 -0.18109089136123657 -0.12314275652170181 -0.009211532771587372 0.1004437804222107 0.0363786444067955 -0.023097364231944084 0.043240781873464584
-0.14961940050125122 -0.2670419216156006 -0.06173735857009888 -0.06663265079259872 -0.0012454334646463394 -0.1166212409734726 -0.023006347939372063 0.008771789260208607
-0.16045260429382324 -0.08438976109027863 -0.015586837194859982 0.04270036518573761 -0.06767722964286804 -0.0995848998427391 0.26352012157440186 -0.08675922453403473
-0.2208947390317917 0.0013499800115823746 0.1188044399023056 0.23268647491931915 0.13361585140228271 0.034163087606430054 0.02592155896127224 -0.062426041811704636
0.08984370529651642 -0.23386459052562714 0.12173216044902802 0.1442607194185257 0.1748802661895752 0.1059914082288742 0.09549636393785477 -0.25955262780189514
0.04175330698490143 0.0968039333820343 -0.14696542918682098 0.14266251027584076 0.07256817072629929 -0.11864130944013596 -0.023955896496772766 0.018131481483578682
0.17337675392627716 0.07105927914381027 -0.062449999153614044 -0.15298278629779816 0.11392014473676682 -0.1168183833360672 -0.08030782639980316 0.17525449395179749
-0.12593333423137665 -0.15634514391422272 -0.25403016805648804 0.030012886971235275 0.4637928605079651 0.04738123342394829 -0.19283559918403625 -0.0022135162726044655
-0.045614879578351974 -0.06605600565671921 0.034425683319568634 0.01993277296423912 -0.07946274429559708 -0.10141575336456299 -0.19159859418869019 0.08081193268299103
0.23583754897117615 0.0045815110206604 -0.09017100930213928 0.16734516620635986 0.05929170921444893 -0.05701481178402901 0.05071285367012024 0.13088014721870422
-0.13007752597332 0.007638571783900261 -0.08612503856420517 -0.0031617479398846626 0.15399502217769623 -0.06894995272159576 -0.09453526884317398 0.10051968693733215
-0.1831122487783432 0.09796619415283203 -0.021269898861646652 -0.0015373267233371735 -0.013711569830775261 -0.028262928128242493 -0.19051867723464966 0.010155268013477325
0.16088619828224182 -0.24107690155506134 0.1879335641860962 0.09786774218082428 -0.004162692464888096 0.11163952201604843 0.09181434661149979 0.016449883580207825
0.06943898648023605 -0.0119294673204422 -0.18558861315250397 -0.14512157440185547 0.08649090677499771 0.0032043708488345146 0.10307804495096207 0.082918182015419
00000000: 0000 0000 b7d4 c0bf 0000 0020 1402 c33f
00000010: 0000 00a0 811d c43f 0000 0080 124b a33f
00000020: 0000 0020 a270 c3bf 0000 0040 04bd adbf
00000030: 0000 00c0 a867 a6bf 0000 00e0 4717 bcbf
00000040: 0000 00c0 67ff ba3f 0000 0040 5870 bdbf
00000050: 0000 00c0 260a cd3f 0000 0040 6805 a6bf
00000060: 0000 00e0 4b2c d0bf 0000 0080 d9e7 af3f
00000070: 0000 0080 5779 a8bf 0000 00c0 89aa ab3f
00000080: 0000 00c0 a04c adbf 0000 0080 fc2d c7bf
00000090: 0000 00a0 4886 bfbf 0000 0000 7fdd 82bf
000000a0: 0000 0000 afb6 b93f 0000 00c0 38a0 a23f
000000b0: 0000 00e0 d5a6 97bf 0000 00e0 a723 a63f
000000c0: 0000 0080 ba26 c3bf 0000 0000 3717 d1bf
000000d0: 0000 0000 0a9c afbf 0000 0060 d60e b1bf
000000e0: 0000 0000 ba67 54bf 0000 00c0 e3da bdbf
000000f0: 0000 00e0 f98e 97bf 0000 00a0 f1f6 813f
00000100: 0000 0000 b689 c4bf 0000 0040 919a b5bf
00000110: 0000 00e0 fdeb 8fbf 0000 0080 d2dc a53f
00000120: 0000 0080 4b53 b1bf 0000 0060 657e b9bf
00000130: 0000 0080 83dd d03f 0000 0040 da35 b6bf
00000140: 0000 0060 4746 ccbf 0000 0000 3a1e 563f
00000150: 0000 00c0 f769 be3f 0000 00a0 abc8 cd3f
00000160: 0000 0000 531a c13f 0000 0000 d37d a13f
00000170: 0000 0060 2e8b 9a3f 0000 0060 4ef6 afbf
00000180: 0000 0040 ffff b63f 0000 0060 46ef cdbf
00000190: 0000 00c0 d629 bf3f 0000 00a0 2277 c23f
000001a0: 0000 0000 7a62 c63f 0000 00c0 4022 bb3f
000001b0: 0000 0020 7372 b83f 0000 00a0 829c d0bf
000001c0: 0000 0080 b060 a53f 0000 0080 24c8 b83f
000001d0: 0000 0060 c3cf c2bf 0000 00e0 c342 c23f
000001e0: 0000 00e0 d393 b23f 0000 00e0 465f bebf
000001f0: 0000 0000 e587 98bf 0000 0020 0f91 923f
00000200: 0000 00a0 3531 c63f 0000 00e0 f030 b23f
00000210: 0000 0040 72f9 afbf 0000 00a0 f094 c3bf
00000220: 0000 00e0 de29 bd3f 0000 0040 cfe7 bdbf
00000230: 0000 00c0 0d8f b4bf 0000 0040 bd6e c63f
00000240: 0000 0060 951e c0bf 0000 0020 1e03 c4bf
00000250: 0000 00c0 0742 d0bf 0000 00c0 b2bb 9e3f
00000260: 0000 0040 c8ae dd3f 0000 0060 5a42 a83f
00000270: 0000 0040 d6ae c8bf 0000 0080 1422 62bf
00000280: 0000 0060 d55a a7bf 0000 00e0 0be9 b0bf
00000290: 0000 0040 3ea0 a13f 0000 00c0 4169 943f
000002a0: 0000 00a0 ab57 b4bf 0000 0000 62f6 b9bf
000002b0: 0000 0080 4d86 c8bf 0000 0040 17b0 b43f
000002c0: 0000 00c0 ec2f ce3f 0000 0000 10c4 723f
000002d0: 0000 0080 7215 b7bf 0000 0000 916b c53f
000002e0: 0000 00a0 7b5b ae3f 0000 00a0 0b31 adbf
000002f0: 0000 0000 09f7 a93f 0000 0040 aec0 c03f
00000300: 0000 0060 61a6 c0bf 0000 0080 9f49 7f3f
00000310: 0000 0060 4a0c b6bf 0000 0080 aae6 69bf
00000320: 0000 00e0 1bb6 c33f 0000 0040 b4a6 b1bf
00000330: 0000 00a0 7633 b8bf 0000 0080 a8bb b93f
00000340: 0000 00e0 3870 c7bf 0000 0000 5014 b93f
00000350: 0000 00c0 c6c7 95bf 0000 0000 0430 59bf
00000360: 0000 00c0 cf14 8cbf 0000 0000 f5f0 9cbf
00000370: 0000 0080 ea62 c8bf 0000 0000 49cc 843f
00000380: 0000 0040 eb97 c43f 0000 00a0 9bdb cebf
00000390: 0000 0000 350e c83f 0000 0040 dc0d b93f
000003a0: 0000 0040 e60c 71bf 0000 0060 6894 bc3f
000003b0: 0000 0020 2581 b73f 0000 0000 3dd8 903f
000003c0: 0000 00e0 c0c6 b13f 0000 0000 7a6e 88bf
000003d0: 0000 0020 5ec1 c7bf 0000 0000 5893 c2bf
000003e0: 0000 00a0 4424 b63f 0000 0080 0d40 6a3f
000003f0: 0000 00a0 5263 ba3f 0000 0040 203a b53f
