FACE_REC_3/data/embeddings/083_b9787470.npy (npy, 1152 bytes, 1 tensors)

array f8 [128]
000000 00 00 00 a0 11 28 bf bf 00 00 00 a0 b4 a9 b3 3f
       -0.12170515209436417 0.07680825144052505
000010 00 00 00 40 a6 34 bc 3f 00 00 00 80 a1 71 c1 bf
       0.11017836630344391 -0.13628023862838745
000020 00 00 00 40 87 3a a4 bf 00 00 00 00 39 17 a1 bf
       -0.039509035646915436 -0.03338029980659485
000030 00 00 00 80 8e eb 99 bf 00 00 00 a0 6a d7 b1 bf
       -0.025312639772892 -0.06969324499368668
000040 00 00 00 60 72 5f d1 3f 00 00 00 00 3e d6 c0 bf
       0.27145060896873474 -0.13153815269470215
000050 00 00 00 40 0d 6c c3 3f 00 00 00 20 b3 af 7f 3f
       0.15173497796058655 0.007735919672995806
000060 00 00 00 60 6d 18 ce bf 00 00 00 40 1f 30 6a bf
       -0.23512046039104462 -0.0031967745162546635
000070 00 00 00 20 a4 2e ab bf 00 00 00 60 1e 27 c6 3f
       -0.05309021845459938 0.1730688065290451
000080 00 00 00 c0 bb 1f c0 bf 00 00 00 a0 19 30 b0 bf
       -0.12596842646598816 -0.06323394924402237
000090 00 00 00 80 9a 8a b4 bf 00 00 00 c0 02 42 a1 bf
       -0.0802399218082428 -0.033706746995449066
0000a0 00 00 00 c0 5f 7a bf 3f 00 00 00 20 28 6e ba 3f
       0.12296102941036224 0.10324335843324661
0000b0 00 00 00 c0 52 2b 8b 3f 00 00 00 00 06 49 be 3f
       0.013266226276755333 0.11830174922943115
0000c0 00 00 00 e0 a5 c2 ab bf 00 00 00 80 5a 6d d3 bf
       -0.05421942099928856 -0.3035494089126587
0000d0 00 00 00 40 ef 7f b8 bf 00 00 00 80 b9 ed a7 bf
       -0.09570212662220001 -0.04673556983470917
0000e0 00 00 00 40 28 72 c0 bf 00 00 00 a0 41 2b c6 bf
       -0.12848380208015442 -0.17319507896900177
0000f0 00 00 00 00 38 a7 99 bf 00 00 00 80 ad a7 b8 3f
       -0.02505195140838623 0.09630855917930603
000100 00 00 00 a0 a1 4d bb bf 00 00 00 40 27 7a a7 bf
       -0.10665331035852432 -0.04585383087396622
000110 00 00 00 00 22 e1 a1 bf 00 00 00 20 c5 9b b6 3f
       -0.03492075204849243 0.08831436187028885
000120 00 00 00 c0 eb bd ab bf 00 00 00 60 92 75 bf bf
       -0.05418335646390915 -0.1228877529501915
000130 00 00 00 e0 74 8a c0 3f 00 00 00 80 e8 1b b8 3f
       0.12922535836696625 0.09417584538459778
000140 00 00 00 00 91 58 cd bf 00 00 00 e0 d6 4e 83 bf
       -0.22926533222198486 -0.009427717886865139
000150 00 00 00 20 fa 5c a2 3f 00 00 00 c0 04 f3 ce 3f
       0.03586560860276222 0.24179133772850037
000160 00 00 00 c0 da 2a d0 3f 00 00 00 00 6d 81 b3 3f
       0.25261563062667847 0.07619363069534302
000170 00 00 00 c0 80 c5 8f bf 00 00 00 20 ce 96 bc bf
       -0.015513425692915916 -0.11167610436677933
000180 00 00 00 00 de df c1 3f 00 00 00 a0 98 3d d7 bf
       0.13964438438415527 -0.3631345331668854
000190 00 00 00 e0 a5 ad a2 bf 00 00 00 20 67 6e bf 3f
       -0.03648107871413231 0.12277836352586746
0001a0 00 00 00 20 90 95 b7 bf 00 00 00 a0 e7 40 b5 3f
       -0.09212590008974075 0.0830216184258461
0001b0 00 00 00 a0 48 c2 b1 3f 00 00 00 80 16 48 cf bf
       0.06937078386545181 -0.2443874478340149
0001c0 00 00 00 00 9e 40 a8 3f 00 00 00 80 50 9a 75 3f
       0.047367990016937256 0.005274118855595589
0001d0 00 00 00 e0 c7 b9 ce bf 00 00 00 e0 d6 1a 8b 3f
       -0.24004457890987396 0.013234785757958889
0001e0 00 00 00 40 bf d8 98 3f 00 00 00 e0 26 bf cd bf
       0.024264324456453323 -0.2323959916830063
0001f0 00 00 00 60 55 b5 75 bf 00 00 00 20 59 13 a0 bf
       -0.0052998862229287624 -0.03139761462807655
000200 00 00 00 a0 f5 7a cc 3f 00 00 00 e0 d0 e2 c7 3f
       0.2225024253129959 0.18660937249660492
000210 00 00 00 e0 d1 d6 bf bf 00 00 00 20 c2 c6 c7 bf
       -0.12437164038419724 -0.18575312197208405
000220 00 00 00 80 63 af c3 3f 00 00 00 60 bf 09 cc bf
       0.1537899374961853 -0.21904747188091278
000230 00 00 00 e0 24 0f aa bf 00 00 00 20 2c 16 c0 3f
       -0.050896789878606796 0.12567664682865143
000240 00 00 00 60 b2 47 bd bf 00 00 00 80 b7 74 c5 bf
       -0.11437525600194931 -0.16762441396713257
000250 00 00 00 00 7f aa d0 bf 00 00 00 80 ea d1 70 3f
       -0.2604062557220459 0.004106441512703896
000260 00 00 00 60 6a 96 d7 3f 00 00 00 a0 c0 e0 c0 3f
       0.36855563521385193 0.13185890018939972
000270 00 00 00 40 f3 89 ae bf 00 00 00 a0 25 67 af 3f
       -0.05964622646570206 0.06133382394909859
000280 00 00 00 40 b2 48 c8 bf 00 00 00 00 d7 80 69 bf
       -0.18971851468086243 -0.0031131934374570847
000290 00 00 00 80 43 0d 95 bf 00 00 00 80 d3 05 c3 3f
       -0.02055840939283371 0.148615300655365
0002a0 00 00 00 80 33 78 84 3f 00 00 00 e0 c8 d3 88 3f
       0.009994890540838242 0.012122697196900845
0002b0 00 00 00 00 6c 6e b4 bf 00 00 00 80 a0 c4 97 bf
       -0.07980990409851074 -0.023211009800434113
0002c0 00 00 00 c0 29 6f c6 3f 00 00 00 80 1b fc 80 3f
       0.17526742815971375 0.008293356746435165
0002d0 00 00 00 80 8a 13 92 bf 00 00 00 60 c8 c6 d5 3f
       -0.017652668058872223 0.3402577340602875
0002e0 00 00 00 80 2e 23 63 3f 00 00 00 c0 73 ce 93 3f
       0.0023361118510365486 0.019342239946126938
0002f0 00 00 00 20 4e 4c 97 3f 00 00 00 40 a3 11 b7 3f
       0.02275201864540577 0.09011287987232208
000300 00 00 00 60 bd 09 c3 bf 00 00 00 80 46 57 9b 3f
       -0.14873473346233368 0.02670011669397354
000310 00 00 00 80 6e aa b7 bf 00 00 00 40 9f c2 9a bf
       -0.09244433045387268 -0.02613304927945137
000320 00 00 00 00 93 9c 91 3f 00 00 00 00 cd f5 b9 bf
       0.017198845744132996 -0.10140687227249146
000330 00 00 00 c0 94 4b a6 3f 00 00 00 20 50 b8 be 3f
       0.04354538768529892 0.11999989300966263
000340 00 00 00 40 ac 3d d0 bf 00 00 00 c0 d7 99 c8 3f
       -0.25376421213150024 0.19219490885734558
000350 00 00 00 00 04 ca b6 bf 00 00 00 80 9a fc 7f bf
       -0.0890200138092041 -0.007809260860085487
000360 00 00 00 40 3e 91 74 bf 00 00 00 00 06 ff b0 bf
       -0.0050213271751999855 -0.06639134883880615
000370 00 00 00 40 93 e8 b5 bf 00 00 00 80 da 9f 8c 3f
       -0.08558006584644318 0.013976771384477615
000380 00 00 00 a0 a8 94 c3 3f 00 00 00 20 f1 af d2 bf
       0.1529742032289505 -0.29198864102363586
000390 00 00 00 60 bf ca c3 3f 00 00 00 80 14 22 c8 3f
       0.15462486445903778 0.1885400414466858
0003a0 00 00 00 e0 5f 1a b8 3f 00 00 00 c0 e3 e2 c6 3f
       0.09415244311094284 0.1787991225719452
0003b0 00 00 00 60 d3 8b 9c 3f 00 00 00 20 84 7e c1 3f
       0.027877142652869225 0.1366734653711319
0003c0 00 00 00 c0 20 f6 a3 bf 00 00 00 00 6f 57 ad bf
       -0.0389871820807457 -0.057307690382003784
0003d0 00 00 00 60 ef 25 c4 bf 00 00 00 c0 88 77 4a bf
       -0.15740768611431122 -0.0008077066158875823
0003e0 00 00 00 20 fd d8 9c 3f 00 00 00 c0 39 a7 99 3f
       0.028171496465802193 0.02505197748541832
0003f0 00 00 00 80 7d 97 85 3f 00 00 00 e0 35 7f ad 3f
       0.010542850941419601 0.05761116370558739
