FACE_REC_3/data/embeddings/088_b1977c95.npy (npy, 1152 bytes, 1 tensors)

array f8 [128]
00000000: 0000 0060 1422 b1bf 0000 00c0 ffa0 c13f
00000010: 0000 0000 e80d a43f 0000 00c0 65ab a4bf
00000020: 0000 00c0 7d75 bebf 0000 0080 c581 a5bf
00000030: 0000 0080 f68a 7cbf 0000 00c0 4928 97bf
00000040: 0000 00e0 711c c73f 0000 00a0 f1d4 a2bf
00000050: 0000 0080 47ef cc3f 0000 00e0 c62b 973f
00000060: 0000 0020 5461 c8bf 0000 0000 345a babf
00000070: 0000 00e0 7aca a8bf 0000 0000 ee8d ac3f
00000080: 0000 0020 5070 bebf 0000 00c0 ffba c1bf
00000090: 0000 0080 0d06 7f3f 0000 0020 b609 abbf
000000a0: 0000 0040 dadc bb3f 0000 0000 3f9b af3f
000000b0: 0000 0000 1cc6 983f 0000 0040 e35d b33f
000000c0: 0000 0000 3a34 8ebf 0000 0020 9815 d7bf
000000d0: 0000 00e0 a493 bebf 0000 0000 9a84 bbbf
000000e0: 0000 0020 e09f ba3f 0000 00e0 3b34 c0bf
000000f0: 0000 00a0 8161 afbf 0000 0020 7ceb b83f
00000100: 0000 0000 f994 c4bf 0000 00a0 e220 c1bf
00000110: 0000 00c0 0ce7 993f 0000 00e0 4636 bd3f
00000120: 0000 0060 3349 b5bf 0000 00e0 18b2 b0bf
00000130: 0000 0060 7364 c73f 0000 0040 838f 9b3f
00000140: 0000 0000 613d b4bf 0000 0000 b326 ab3f
00000150: 0000 00c0 582a 90bf 0000 00e0 181f d63f
00000160: 0000 0080 3fb3 c63f 0000 00c0 af47 a93f
00000170: 0000 0040 e410 a83f 0000 0000 1cd5 b3bf
00000180: 0000 00e0 24ae c13f 0000 00a0 56d7 c8bf
00000190: 0000 00c0 702b af3f 0000 00c0 e4ab c93f
000001a0: 0000 0000 f0de c93f 0000 0000 cfe8 b33f
000001b0: 0000 0000 5f17 b93f 0000 00e0 2c8a c4bf
000001c0: 0000 00c0 8757 ab3f 0000 00e0 0192 b93f
000001d0: 0000 0060 84b8 cebf 0000 0000 502c b33f
000001e0: 0000 0060 2c07 933f 0000 00e0 37da c1bf
000001f0: 0000 0060 ef96 803f 0000 0080 2785 bdbf
00000200: 0000 00e0 1366 c93f 0000 0040 bf52 b13f
00000210: 0000 0040 c66a a8bf 0000 00e0 3b87 c2bf
00000220: 0000 0040 a3a7 c73f 0000 0020 28d2 c2bf
00000230: 0000 0020 c1c4 adbf 0000 0080 d9a9 bb3f
00000240: 0000 0020 133a babf 0000 0080 c8d4 c3bf
00000250: 0000 0060 c25c c2bf 0000 0040 2c9e b63f
00000260: 0000 00a0 6833 d73f 0000 0060 2fa2 c93f
00000270: 0000 0060 8a98 c3bf 0000 00a0 ce5b b73f
00000280: 0000 0020 2cd0 b9bf 0000 0080 b835 a3bf
00000290: 0000 00c0 3eb4 883f 0000 0000 346b a63f
000002a0: 0000 0040 f9ee b6bf 0000 00a0 7692 80bf
000002b0: 0000 00e0 550f c7bf 0000 0020 6d6f 823f
000002c0: 0000 00c0 3742 c03f 0000 0020 2d02 9cbf
000002d0: 0000 00a0 ea83 94bf 0000 00c0 b581 c73f
000002e0: 0000 0040 4783 833f 0000 0060 26ba ba3f
000002f0: 0000 0080 d235 b93f 0000 0000 4046 86bf
00000300: 0000 00c0 e9c0 bdbf 0000 00a0 4a6b b53f
00000310: 0000 0040 5699 bbbf 0000 00c0 9f2d 923f
00000320: 0000 0060 9066 a1bf 0000 00a0 1447 cabf
00000330: 0000 0060 4c13 a5bf 0000 0000 3756 913f
00000340: 0000 00c0 ab39 c3bf 0000 00c0 c023 bf3f
00000350: 0000 00a0 89b0 a3bf 0000 00c0 29f5 703f
00000360: 0000 00e0 d9ed b6bf 0000 00e0 f7db b4bf
00000370: 0000 00e0 ff70 b6bf 0000 0080 1545 a33f
00000380: 0000 0040 cc89 c23f 0000 0040 6ceb d5bf
00000390: 0000 0020 139e d03f 0000 0000 a601 c13f
000003a0: 0000 0080 0b55 843f 0000 0060 1d8b ce3f
000003b0: 0000 0040 9e5c a23f 0000 0060 f85d b93f
000003c0: 0000 00a0 db92 96bf 0000 0040 30cc c6bf
000003d0: 0000 0040 5d37 c4bf 0000 00c0 71a3 b5bf
000003e0: 0000 0060 b0a5 af3f 0000 0080 37b8 68bf
000003f0: 0000 0040 cd90 953f 0000 0020 b6dd a13f
-0.0669262632727623 0.1377258002758026 0.039168596267700195 -0.0403701588511467 -0.118980273604393 -0.04200570285320282 -0.006968462839722633 -0.022614624351263046
0.1805555671453476 -0.03678088262677193 0.22605222463607788 0.0226279329508543 -0.19047023355960846 -0.10293889045715332 -0.04841979965567589 0.05577033758163452
-0.11890126019716263 -0.1385192573070526 0.007574131712317467 -0.05280846729874611 0.10883869230747223 0.061731308698654175 0.024193227291107178 0.07565136253833771
-0.014748051762580872 -0.3606930077075958 -0.11944036930799484 -0.10749208927154541 0.10400200635194778 -0.12659405171871185 -0.061290789395570755 0.09734321385622025
-0.16079628467559814 -0.13381607830524445 0.025295447558164597 0.11410944908857346 -0.08314820379018784 -0.06521754711866379 0.18275301158428192 0.026914644986391068
-0.07906156778335571 0.0530296266078949 -0.015786539763212204 0.34564802050590515 0.17734521627426147 0.04937504976987839 0.04700387269258499 -0.07747054100036621
0.13812695443630219 -0.19407160580158234 0.06087829917669296 0.20055827498435974 0.2021160125732422 0.0777711272239685 0.09801286458969116 -0.1604667752981186
0.05340217798948288 0.09988414496183395 -0.24000601470470428 0.07489490509033203 0.018582051619887352 -0.13947199285030365 0.008100385777652264 -0.11531302332878113
0.19842766225337982 0.0676688700914383 -0.04768962413072586 -0.14475201070308685 0.18480339646339417 -0.14703847467899323 -0.058141741901636124 0.10806044936180115
-0.10244864970445633 -0.15493112802505493 -0.14345578849315643 0.08835102617740631 0.3625127375125885 0.20026199519634247 -0.1530926674604416 0.09124461561441422
-0.10083270817995071 -0.03751923143863678 0.012062540277838707 0.04378664493560791 -0.08958394825458527 -0.008091856725513935 -0.18015550076961517 0.009001591242849827
0.12702080607414246 -0.027352051809430122 -0.02003447152674198 0.18364593386650085 0.009527737274765968 0.10440292209386826 0.09847751259803772 -0.010876178741455078
-0.11622487008571625 0.08366838842630386 -0.10780848562717438 0.017752166837453842 -0.033985625952482224 -0.20529420673847198 -0.04116285964846611 0.01693044602870941
-0.15019747614860535 0.12163929641246796 -0.03845624998211861 0.004140055738389492 -0.08956681936979294 -0.0814814493060112 -0.0876617357134819 0.037636443972587585
0.14483025670051575 -0.34249407052993774 0.2596481144428253 0.13286280632019043 0.009927835315465927 0.23862044513225555 0.03586287051439285 0.09909012168645859
-0.02204459346830845 -0.17810633778572083 -0.1579395830631256 -0.0845252126455307 0.06181098148226738 -0.0030175289139151573 0.021060187369585037 0.03489464893937111
