FACE_REC_3/data/embeddings/090_b316be20.npy (npy, 1152 bytes, 1 tensors)

array f8 [128]
0	0xbfb4e9c1a0000000	-0.08169183880090714
1	0x3fb5af74a0000000	0.08470848947763443
2	0x3fb8d79d80000000	0.09704002737998962
3	0xbf50163dc0000000	-0.0009818652179092169
4	0xbfb9e57d60000000	-0.10115798562765121
5	0xbfaa72a8a0000000	-0.051656026393175125
6	0x3f9defba60000000	0.02923480235040188
7	0xbfa95e3360000000	-0.04954681918025017
8	0x3fc1e6b860000000	0.13985352218151093
9	0x3fa7af9700000000	0.04626151919364929
10	0x3fca178460000000	0.20384268462657928
11	0xbfb0075120000000	-0.0626116469502449
12	0xbfc9354f80000000	-0.1969394087791443
13	0xbfbae80d60000000	-0.10510333627462387
14	0xbfb2790160000000	-0.07215889543294907
15	0x3fb951a8a0000000	0.09890226274728775
16	0xbfb7b9b3a0000000	-0.09267733246088028
17	0xbfbd613780000000	-0.11476466059684753
18	0xbfb1b1bea0000000	-0.06911841779947281
19	0xbfbd301a20000000	-0.11401522904634476
20	0x3fb3a7c200000000	0.07677853107452393
21	0x3f829197e0000000	0.00906675960868597
22	0x3fa2dd9880000000	0.036846891045570374
23	0x3fb0802c60000000	0.06445576995611191
24	0xbfc14db020000000	-0.13518334925174713
25	0xbfd1a151c0000000	-0.27547115087509155
26	0xbf9ab90a20000000	-0.026096494868397713
27	0xbfbb5ab7c0000000	-0.10685299336910248
28	0x3fa3221da0000000	0.037369657307863235
29	0xbfc49a9600000000	-0.16096758842468262
30	0x3fa53a5720000000	0.04146072641015053
31	0x3fc1609520000000	0.13575996458530426
32	0xbfc7fee520000000	-0.18746627867221832
33	0xbfb9a794a0000000	-0.10021332651376724
34	0xbfa9edfe40000000	-0.05064386874437332
35	0x3fb4dcd840000000	0.08149482309818268
36	0xbfb3698760000000	-0.07582899183034897
37	0xbfc3dcb3a0000000	-0.15517278015613556
38	0x3fce4a3300000000	0.2366393804550171
39	0xbf88f9cce0000000	-0.012195206247270107
40	0xbfb65cc840000000	-0.08735324442386627
41	0x3f35c37800000000	0.00033208541572093964
42	0xbf889d5840000000	-0.012018861249089241
43	0x3fd6324ca0000000	0.34682002663612366
44	0x3fc573a140000000	0.16759124398231506
45	0xbf9f629a00000000	-0.030649572610855103
46	0x3fb2d111e0000000	0.07350265234708786
47	0xbfb0e29c60000000	-0.06595780700445175
48	0x3fc6efb460000000	0.17919020354747772
49	0xbfd36af3c0000000	-0.303402841091156
50	0xbf60d39400000000	-0.0020540133118629456
51	0x3fc33c0360000000	0.15026895701885223
52	0x3fb42491c0000000	0.07868300378322601
53	0x3faa526040000000	0.051409728825092316
54	0x3fa8c2bc60000000	0.04836071655154228
55	0xbfbd1b89c0000000	-0.11370144784450531
56	0x3fbc80c060000000	0.11133959144353867
57	0x3fc0799340000000	0.12871018052101135
58	0xbfcfd2d360000000	-0.2486213892698288
59	0x3fb2000640000000	0.07031287252902985
60	0x3f74ff7200000000	0.005126424133777618
61	0xbfb92da640000000	-0.09835280478000641
62	0xbf96a80aa0000000	-0.022125402465462685
63	0xbfb5bfb600000000	-0.08495652675628662
64	0x3fcc198c60000000	0.2195296734571457
65	0x3fb38c5a80000000	0.07636037468910217
66	0xbfa71635a0000000	-0.04509131982922554
67	0xbfb2e5daa0000000	-0.07381979376077652
68	0x3fbe8d83c0000000	0.11934684216976166
69	0xbfb6510440000000	-0.0871737152338028
70	0xbfab1edb80000000	-0.0529697984457016
71	0x3fc054bb20000000	0.1275857836008072
72	0xbfbdbdae40000000	-0.11617554724216461
73	0xbfc5f67620000000	-0.17158390581607819
74	0xbfd4632840000000	-0.31855207681655884
75	0x3fb7aaef60000000	0.09245201200246811
76	0x3fdf761180000000	0.4915813207626343
77	0x3fbe0bc740000000	0.117367222905159
78	0xbfc7db5b20000000	-0.18638171255588531
79	0x3fa8d389a0000000	0.04848890379071236
80	0xbfbef03a20000000	-0.12085307389497757
81	0x3f96918b00000000	0.02203957736492157
82	0x3fb510e840000000	0.08228923380374908
83	0x3f8337c700000000	0.009383730590343475
84	0xbfc298dac0000000	-0.14528974890708923
85	0xbf9647edc0000000	-0.021758761256933212
86	0xbfca0baf20000000	-0.20348156988620758
87	0x3fabd7fc00000000	0.05438220500946045
88	0x3fca5986c0000000	0.20585712790489197
89	0xbfa00e4b80000000	-0.03135906159877777
90	0xbfbc9a4ae0000000	-0.11172931641340256
91	0x3fc4a78380000000	0.16136211156845093
92	0x3fb6843140000000	0.08795459568500519
93	0xbf6f9bfa80000000	-0.0038585560396313667
94	0x3fae7fefa0000000	0.0595698244869709
95	0x3f9af8c340000000	0.0263395793735981
96	0xbfb3a85900000000	-0.07678753137588501
97	0x3fae3a9620000000	0.05904072895646095
98	0xbfbb560a40000000	-0.10678161680698395
99	0x3f86b53d20000000	0.01108787301927805
100	0x3fc0ee9de0000000	0.13228200376033783
101	0xbfbd12eb40000000	-0.11356993019580841
102	0x3f52b06780000000	0.0011406908743083477
103	0x3fb0eb96e0000000	0.06609480828046799
104	0xbfc8cf8880000000	-0.19383341073989868
105	0x3fc26c6560000000	0.1439329832792282
106	0x3f93cbaee0000000	0.01933167688548565
107	0xbfa33f6ac0000000	-0.037593208253383636
108	0xbf994dadc0000000	-0.024710383266210556
109	0xbfba1d0060000000	-0.10200502723455429
110	0xbfc27c5f60000000	-0.1444205492734909
111	0x3faaa79740000000	0.05205986648797989
112	0x3fc5ab2240000000	0.16928508877754211
113	0xbfd38acc80000000	-0.30534660816192627
114	0x3fc3297820000000	0.1497030407190323
115	0x3fc13192e0000000	0.13432537019252777
116	0x3fa88f4a40000000	0.047968216240406036
117	0x3fc8475a20000000	0.18967749178409576
118	0x3fab8a9340000000	0.05379161983728409
119	0x3fb0ae11a0000000	0.06515607982873917
120	0xbfb17ffe00000000	-0.06835925579071045
121	0xbfa73dd400000000	-0.04539358615875244
122	0xbfb2e93500000000	-0.0738709568977356
123	0xbfa953d660000000	-0.04946775361895561
124	0x3fbf152400000000	0.12141633033752441
125	0x3fb056dd40000000	0.06382544338703156
126	0x3fb2784d40000000	0.0721481591463089
127	0x3fac39b100000000	0.05512765049934387
