FACE_REC_3/data/embeddings/091_b5b4a62f.npy (npy, 1152 bytes, 1 tensors)

array f8 [128]
-0.13024209439754486 0.061398789286613464 0.1591431051492691 -0.09370158612728119 -0.09042663872241974 -0.05261030048131943 0.03972412645816803 -0.07741351425647736
0.22934909164905548 -0.1512300819158554 0.1475420892238617 -0.06135633960366249 -0.3530794680118561 0.012755630537867546 -0.01686990261077881 0.17493198812007904
-0.20812062919139862 -0.2268085926771164 -0.12787500023841858 -0.06593497097492218 0.07287301123142242 -0.02013988420367241 -0.05800143629312515 0.10420791804790497
-0.17992255091667175 -0.369096040725708 -0.09516626596450806 0.045229971408843994 -0.005041105672717094 -0.17408716678619385 0.024032114073634148 0.1609494686126709
-0.2233312875032425 -0.009327376261353493 -0.03436479717493057 0.16609323024749756 -0.04887436702847481 -0.18077895045280457 0.11284119635820389 0.039023514837026596
-0.29489707946777344 -0.06503014266490936 0.1351991444826126 0.29842326045036316 0.271660178899765 0.021770283579826355 0.011937081813812256 -0.03951054811477661
0.13956047594547272 -0.36157307028770447 0.056285664439201355 0.23881439864635468 0.015412495471537113 0.1602780669927597 0.10259269922971725 -0.2908744215965271
0.01934838481247425 0.07785259932279587 -0.18051578104496002 0.05368557572364807 0.10354706645011902 -0.16118600964546204 0.019856508821249008 -0.056468937546014786
0.1650959998369217 0.1374896764755249 -0.16078312695026398 -0.12111959606409073 0.2575605511665344 -0.18779979646205902 -0.008110102266073227 0.0476328544318676
-0.2133699208498001 -0.16620662808418274 -0.3335755467414856 0.02448548749089241 0.3865930438041687 0.11854803562164307 -0.06221897527575493 0.044912394136190414
-0.05481483042240143 0.04291862994432449 -0.010490210726857185 0.232838436961174 -0.019866522401571274 0.008251840248703957 -0.09986758232116699 0.16220644116401672
0.16768218576908112 0.04745325446128845 -0.042556293308734894 0.22202539443969727 0.008057898841798306 -0.09417565166950226 0.025774165987968445 0.11660197377204895
-0.16246816515922546 -0.022312624379992485 -0.20206516981124878 0.011840030550956726 -0.0007475642487406731 -0.02629859372973442 -0.042005252093076706 0.13975872099399567
-0.07755573093891144 0.18060067296028137 0.04533156752586365 0.0027974415570497513 -0.09363514930009842 -0.06168954446911812 -0.10125963389873505 -0.0006379883270710707
0.07480208575725555 -0.2590910792350769 0.2175978124141693 0.19069498777389526 0.031089162454009056 0.12287238985300064 0.017395570874214172 0.11374062299728394
0.058346282690763474 -0.0766705647110939 -0.09158031642436981 -0.05507810041308403 -0.002930939197540283 -0.002797342836856842 0.022877532988786697 0.03921082988381386
00000000: 0000 00e0 c5ab c0bf 0000 0080 a96f af3f
00000010: 0000 0020 cd5e c43f 0000 00c0 d3fc b7bf
00000020: 0000 0040 3326 b7bf 0000 00c0 bcef aabf
00000030: 0000 0080 b856 a43f 0000 0040 5fd1 b3bf
00000040: 0000 00a0 4f5b cd3f 0000 00e0 815b c3bf
00000050: 0000 00c0 a8e2 c23f 0000 0020 196a afbf
00000060: 0000 00a0 da98 d6bf 0000 00c0 9f1f 8a3f
00000070: 0000 0000 5846 91bf 0000 00e0 2b64 c63f
00000080: 0000 0060 b2a3 cabf 0000 0060 1008 cdbf
00000090: 0000 0040 355e c0bf 0000 0040 1de1 b0bf
000000a0: 0000 0040 cea7 b23f 0000 00c0 8c9f 94bf
000000b0: 0000 0040 5db2 adbf 0000 00c0 5ead ba3f
000000c0: 0000 00c0 b307 c7bf 0000 0000 459f d7bf
000000d0: 0000 0000 d15c b8bf 0000 0000 6228 a73f
000000e0: 0000 0080 fba5 74bf 0000 0000 7d48 c6bf
000000f0: 0000 00e0 df9b 983f 0000 0000 fe99 c43f
00000100: 0000 00a0 1e96 ccbf 0000 0040 3b1a 83bf
00000110: 0000 0040 4398 a1bf 0000 0000 8b42 c53f
00000120: 0000 00a0 0f06 a9bf 0000 00c0 c323 c7bf
00000130: 0000 0020 29e3 bc3f 0000 00e0 e3fa a33f
00000140: 0000 0000 98df d2bf 0000 00c0 d0a5 b0bf
00000150: 0000 00a0 344e c13f 0000 00e0 5d19 d33f
00000160: 0000 0060 e162 d13f 0000 0000 f34a 963f
00000170: 0000 0000 7872 883f 0000 0000 ba3a a4bf
00000180: 0000 0020 1edd c13f 0000 0060 0324 d7bf
00000190: 0000 0080 79d1 ac3f 0000 0060 7891 ce3f
000001a0: 0000 0020 9690 8f3f 0000 00e0 fd83 c43f
000001b0: 0000 00e0 8343 ba3f 0000 00c0 af9d d2bf
000001c0: 0000 0020 10d0 933f 0000 00e0 25ee b33f
000001d0: 0000 0020 241b c7bf 0000 0000 ad7c ab3f
000001e0: 0000 0080 0f82 ba3f 0000 0040 bea1 c4bf
000001f0: 0000 00c0 4355 943f 0000 0020 7fe9 acbf
00000200: 0000 00a0 dd21 c53f 0000 0000 4399 c13f
00000210: 0000 00a0 8a94 c4bf 0000 00a0 b101 bfbf
00000220: 0000 0040 df7b d03f 0000 00e0 d209 c8bf
00000230: 0000 0080 079c 80bf 0000 0060 5563 a83f
00000240: 0000 00a0 b44f cbbf 0000 0040 4246 c5bf
00000250: 0000 0040 4d59 d5bf 0000 0040 b912 993f
00000260: 0000 00c0 f0bd d83f 0000 0000 2a59 be3f
00000270: 0000 0060 2adb afbf 0000 00e0 c1fe a63f
00000280: 0000 0080 b010 acbf 0000 0040 6ef9 a53f
00000290: 0000 0040 e47b 85bf 0000 0060 a6cd cd3f
000002a0: 0000 00c0 e357 94bf 0000 0040 57e6 803f
000002b0: 0000 0000 ec90 b9bf 0000 0040 2ec3 c43f
000002c0: 0000 0020 9c76 c53f 0000 0000 cb4b a83f
000002d0: 0000 0040 f0c9 a5bf 0000 0000 546b cc3f
000002e0: 0000 00e0 a880 803f 0000 0040 e51b b8bf
000002f0: 0000 0000 8b64 9a3f 0000 0080 a0d9 bd3f
00000300: 0000 00c0 c1cb c4bf 0000 00e0 1ed9 96bf
00000310: 0000 0080 45dd c9bf 0000 0000 963f 883f
00000320: 0000 0000 067f 48bf 0000 00c0 04ee 9abf
00000330: 0000 0060 b681 a5bf 0000 0020 9de3 c13f
00000340: 0000 0040 b1da b3bf 0000 0040 ec1d c73f
00000350: 0000 0000 b335 a73f 0000 0000 a9ea 663f
00000360: 0000 0020 79f8 b7bf 0000 00a0 c595 afbf
00000370: 0000 00c0 26ec b9bf 0000 0080 d5e7 44bf
00000380: 0000 00c0 3a26 b33f 0000 00c0 f294 d0bf
00000390: 0000 00c0 3eda cb3f 0000 0080 b168 c83f
000003a0: 0000 0060 d6d5 9f3f 0000 00a0 9074 bf3f
000003b0: 0000 0000 25d0 913f 0000 0000 1b1e bd3f
000003c0: 0000 0060 90df ad3f 0000 00a0 aea0 b3bf
000003d0: 0000 00c0 ce71 b7bf 0000 0060 3233 acbf
000003e0: 0000 0000 a002 68bf 0000 0000 74ea 66bf
000003f0: 0000 0040 356d 973f 0000 0020 7113 a43f
