FACE_REC_3/data/embeddings/094_b654a685.npy (npy, 1152 bytes, 1 tensors)

array f8 [128]
00000000: 0000 00e0 38ac c2bf 0000 0020 27e5 c23f
00000010: 0000 00a0 fa05 b63f 0000 00a0 76a0 b2bf
00000020: 0000 0060 fb1c 99bf 0000 00e0 6402 993f
00000030: 0000 00a0 2fef a8bf 0000 0080 25b6 b1bf
00000040: 0000 0060 1d1e d13f 0000 0020 9a24 bfbf
00000050: 0000 0080 fb38 d13f 0000 0000 476a 92bf
00000060: 0000 0040 137a d2bf 0000 0020 a51f abbf
00000070: 0000 00a0 2c7f b4bf 0000 0000 4a66 c63f
00000080: 0000 0020 fcde c9bf 0000 0020 815b a4bf
00000090: 0000 00a0 1dac b4bf 0000 00c0 6b05 b5bf
000000a0: 0000 0020 54e6 bc3f 0000 0020 d8df b13f
000000b0: 0000 0060 192a a13f 0000 00e0 17c4 bd3f
000000c0: 0000 00c0 00a5 c9bf 0000 0020 8d38 d0bf
000000d0: 0000 0080 a107 b0bf 0000 00e0 7e77 bbbf
000000e0: 0000 0040 fb16 b73f 0000 0000 d32c c5bf
000000f0: 0000 0080 4ee0 9bbf 0000 0000 db1e 983f
00000100: 0000 0020 c9da bfbf 0000 0000 b58e 983f
00000110: 0000 0000 f003 323f 0000 00a0 556a b93f
00000120: 0000 0000 41ca 9ebf 0000 00c0 a9ac b0bf
00000130: 0000 00a0 eb19 c43f 0000 0020 a2db a2bf
00000140: 0000 00e0 f57f cabf 0000 00e0 c267 b7bf
00000150: 0000 00c0 c518 953f 0000 0020 997c cc3f
00000160: 0000 00a0 49ea d13f 0000 0060 e90f adbf
00000170: 0000 00e0 2d5c 9abf 0000 0080 96da c2bf
00000180: 0000 0080 d73e ca3f 0000 0000 0462 d3bf
00000190: 0000 0000 c898 923f 0000 00c0 7348 ca3f
000001a0: 0000 00a0 3d88 733f 0000 0040 b845 b73f
000001b0: 0000 0060 6ccf c23f 0000 00c0 8c6e bfbf
000001c0: 0000 0000 a89b a7bf 0000 0000 ffd6 c83f
000001d0: 0000 00a0 6a9c ccbf 0000 00c0 f59c 973f
000001e0: 0000 0060 06da a23f 0000 0000 c10e b5bf
000001f0: 0000 0000 c372 b2bf 0000 0040 4216 b2bf
00000200: 0000 0080 4e69 b03f 0000 00a0 3386 b93f
00000210: 0000 00c0 2a43 c8bf 0000 00e0 664c cbbf
00000220: 0000 00a0 aa3b c63f 0000 0040 74d5 ccbf
00000230: 0000 00a0 438a ab3f 0000 0080 fd6e cc3f
00000240: 0000 0060 ac24 b8bf 0000 00a0 c762 cebf
00000250: 0000 0020 2135 cfbf 0000 0040 87aa 953f
00000260: 0000 00a0 2f32 d83f 0000 0040 18d1 c63f
00000270: 0000 0040 f874 b3bf 0000 00c0 910a ba3f
00000280: 0000 0000 7cf6 b1bf 0000 0040 8f17 b7bf
00000290: 0000 0000 8b4b 783f 0000 0080 a03d bc3f
000002a0: 0000 0040 ff64 89bf 0000 0000 1f2d 773f
000002b0: 0000 00c0 3f88 abbf 0000 00e0 5125 b93f
000002c0: 0000 0000 fa36 b83f 0000 0020 8e5b a5bf
000002d0: 0000 00c0 73d5 b53f 0000 0080 03f6 d33f
000002e0: 0000 0040 340b a9bf 0000 0060 369d 99bf
000002f0: 0000 0000 af7a 77bf 0000 0060 c9a9 bf3f
00000300: 0000 0040 bc16 cabf 0000 0040 dfd1 85bf
00000310: 0000 00c0 453b b4bf 0000 0000 4cac a9bf
00000320: 0000 0040 a662 a43f 0000 00c0 72a9 a7bf
00000330: 0000 0060 9008 ab3f 0000 0080 58f8 983f
00000340: 0000 00c0 e753 bcbf 0000 0000 9619 c83f
00000350: 0000 0080 3d66 96bf 0000 0000 8987 9e3f
00000360: 0000 0080 2120 9b3f 0000 00c0 0383 b8bf
00000370: 0000 0000 c41d b6bf 0000 0040 404f 79bf
00000380: 0000 00e0 618e ca3f 0000 0000 66aa d1bf
00000390: 0000 0040 2ecd c33f 0000 00e0 aa3b b03f
000003a0: 0000 0000 a2a5 4bbf 0000 0080 8f51 be3f
000003b0: 0000 0080 a468 a93f 0000 0000 3374 c03f
000003c0: 0000 0040 e89a 7c3f 0000 0060 abc7 b4bf
000003d0: 0000 0060 96fa b4bf 0000 00c0 6606 88bf
000003e0: 0000 0000 ba1f 903f 0000 0040 94bc bebf
000003f0: 0000 0000 2629 7f3f 0000 0000 7039 bcbf
-0.1458808034658432 0.14761818945407867 0.08602873235940933 -0.07276097685098648 -0.024524619802832603 0.02442319504916668 -0.048699844628572464 -0.06918558478355408
0.2674630582332611 -0.12165225297212601 0.26910293102264404 -0.017983540892601013 -0.2887008786201477 -0.05297580733895302 -0.0800655260682106 0.17499661445617676
-0.202117457985878 -0.03976062312722206 -0.08075127750635147 -0.08211396634578705 0.11288953572511673 0.06982184201478958 0.03352431580424309 0.11627339571714401
-0.20034798979759216 -0.2534516155719757 -0.06261643767356873 -0.10729210823774338 0.09019441902637482 -0.16543042659759521 -0.027222849428653717 0.023555204272270203
-0.12443215399980545 0.023981884121894836 0.0002748928964138031 0.09927878528833389 -0.03006841242313385 -0.06513462960720062 0.1570410281419754 -0.036831919103860855
-0.2070300430059433 -0.0914270207285881 0.020602311939001083 0.22255243360996246 0.27992478013038635 -0.05676202103495598 -0.025742260739207268 -0.1472957730293274
0.2050427794456482 -0.3028573989868164 0.01816093921661377 0.2053360641002655 0.004768601153045893 0.09090758860111237 0.14695505797863007 -0.12278060615062714
-0.04610943794250488 0.19406116008758545 -0.22352345287799835 0.023059692233800888 0.03681964799761772 -0.08225637674331665 -0.0720636248588562 -0.07065214216709137
0.06410685181617737 0.09970400482416153 -0.1895497739315033 -0.21326909959316254 0.1736958771944046 -0.22526410222053528 0.05378924682736397 0.22213715314865112
-0.09430959075689316 -0.23738951981067657 -0.24380888044834137 0.021158326417207718 0.3780631124973297 0.1782560646533966 -0.07600356638431549 0.10172377526760101
-0.07016730308532715 -0.09020324051380157 0.005931418389081955 0.11031535267829895 -0.012399667873978615 0.005658265203237534 -0.053773872554302216 0.09822570532560349
0.09458887577056885 -0.0417141355574131 0.08528827130794525 0.31189048290252686 -0.04891360551118851 -0.02501378022134304 -0.005732234567403793 0.12368448823690414
-0.20381882786750793 -0.010654205456376076 -0.07902942597866058 -0.050142645835876465 0.039815135300159454 -0.04621466249227524 0.052799712866544724 0.024384863674640656
-0.1106552928686142 0.18828082084655762 -0.02187439054250717 0.029813900589942932 0.026489757001399994 -0.09574912488460541 -0.08639168739318848 -0.00617909524589777
0.20747016370296478 -0.27602529525756836 0.15469911694526672 0.0634104534983635 -0.0008437195792794228 0.11843201518058777 0.049626484513282776 0.1285461187362671
0.00698366854339838 -0.08117171376943588 -0.0819486603140831 -0.011730959638953209 0.01574602723121643 -0.12006498873233795 0.007607601583003998 -0.11025142669677734
