FACE_REC_3/data/embeddings/094_b043e45c.npy (npy, 1152 bytes, 1 tensors)

array f8 [128]
-0.17614446580410004 0.17243051528930664 0.09171825647354126 -0.03108184039592743 -0.1947617530822754 -0.0647435411810875 -0.11167202889919281 -0.14089995622634888
0.28137677907943726 -0.051081426441669464 0.12494204938411713 -0.007710997015237808 -0.21611276268959045 -0.025201641023159027 -0.04485095292329788 0.19442737102508545
-0.26932084560394287 -0.1449100226163864 -0.025506459176540375 -0.030131949111819267 0.11469080299139023 0.03502713143825531 0.06670425832271576 0.15603995323181152
-0.10453289747238159 -0.3649958372116089 -0.023727819323539734 -0.026331596076488495 0.020084090530872345 -0.14586637914180756 -0.009618287906050682 0.040553074330091476
-0.2094237059354782 -0.059854790568351746 0.029385967180132866 0.14204728603363037 -0.017084212973713875 -0.12885022163391113 0.15315452218055725 -0.011009987443685532
-0.24256537854671478 -0.06626288592815399 0.09918445348739624 0.23085498809814453 0.31116315722465515 0.04436219111084938 -0.014724766835570335 -0.1340259164571762
0.21033230423927307 -0.3458978533744812 0.05056726932525635 0.2142096757888794 -0.03912406042218208 0.029412638396024704 0.16375494003295898 -0.22040122747421265
-0.05154051631689072 0.08516503125429153 -0.17810483276844025 0.05611284822225571 0.09487584233283997 -0.06375828385353088 -0.002315329387784004 -0.15426746010780334
0.2019844949245453 0.12269656360149384 -0.10788287967443466 -0.1272600144147873 0.160282701253891 -0.16502706706523895 -0.07994227856397629 0.06322233378887177
-0.09889572113752365 -0.23355773091316223 -0.3275156021118164 -0.03131352365016937 0.44176724553108215 0.18606950342655182 -0.15243470668792725 0.05916795879602432
-0.06496413052082062 -0.03909759595990181 -0.04298299178481102 0.1272444874048233 -0.016461782157421112 0.04368489980697632 -0.11498743295669556 0.05988774821162224
0.19236701726913452 0.01937645487487316 0.01928156055510044 0.3308010697364807 0.011769418604671955 -0.025580797344446182 0.025070248171687126 0.07270368188619614
-0.15701352059841156 -0.008244010619819164 -0.25614824891090393 -0.11582592129707336 0.02534063532948494 -0.026047859340906143 0.04557737335562706 0.07161422818899155
-0.19280557334423065 0.10427197813987732 0.016978872939944267 -0.02385387010872364 -0.0841350331902504 -0.045552682131528854 -0.18957699835300446 0.011584621854126453
0.18481352925300598 -0.23769299685955048 0.2666842043399811 0.12077295780181885 0.09878534078598022 0.20793132483959198 0.03240347281098366 0.11740951240062714
0.029736656695604324 -0.07586465775966644 0.04431075602769852 -0.0635630264878273 0.006608097814023495 -0.027221940457820892 0.06836234033107758 0.08238038420677185
00000000: 0000 00e0 e68b c6bf 0000 0000 3412 c63f
00000010: 0000 0000 d97a b73f 0000 0000 ebd3 9fbf
00000020: 0000 0000 f4ed c8bf 0000 0060 0893 b0bf
00000030: 0000 00c0 8996 bcbf 0000 0080 0209 c2bf
00000040: 0000 00c0 1302 d23f 0000 0040 5827 aabf
00000050: 0000 00c0 33fc bf3f 0000 0000 9195 7fbf
00000060: 0000 0040 95a9 cbbf 0000 0080 75ce 99bf
00000070: 0000 0040 b4f6 a6bf 0000 0000 ffe2 c83f
00000080: 0000 0080 8d3c d1bf 0000 0060 698c c2bf
00000090: 0000 0080 5d1e 9abf 0000 00e0 e8da 9ebf
000000a0: 0000 0060 605c bd3f 0000 0080 13ef a13f
000000b0: 0000 00c0 8713 b13f 0000 0000 1ef9 c33f
000000c0: 0000 0000 abc2 babf 0000 0080 175c d7bf
000000d0: 0000 0000 1b4c 98bf 0000 0080 abf6 9abf
000000e0: 0000 0080 ec90 943f 0000 00e0 bfab c2bf
000000f0: 0000 00c0 c0b2 83bf 0000 0060 5fc3 a43f
00000100: 0000 0060 65ce cabf 0000 0080 49a5 aebf
00000110: 0000 00e0 5a17 9e3f 0000 0000 9b2e c23f
00000120: 0000 0020 867e 91bf 0000 0000 2a7e c0bf
00000130: 0000 0040 919a c33f 0000 0080 678c 86bf
00000140: 0000 00e0 610c cfbf 0000 00c0 9af6 b0bf
00000150: 0000 0000 2764 b93f 0000 0000 a88c cd3f
00000160: 0000 00e0 18ea d33f 0000 0020 a4b6 a63f
00000170: 0000 00c0 0428 8ebf 0000 00e0 c227 c1bf
00000180: 0000 0040 2bec ca3f 0000 00c0 3023 d6bf
00000190: 0000 0000 f4e3 a93f 0000 0000 396b cb3f
000001a0: 0000 00a0 1108 a4bf 0000 00c0 581e 9e3f
000001b0: 0000 0000 ecf5 c43f 0000 0080 1b36 ccbf
000001c0: 0000 00c0 8463 aabf 0000 0020 60cd b53f
000001d0: 0000 00a0 23cc c6bf 0000 00c0 d2ba ac3f
000001e0: 0000 0080 c849 b83f 0000 0080 7652 b0bf
000001f0: 0000 0000 99f7 62bf 0000 0040 09bf c3bf
00000200: 0000 00c0 a0da c93f 0000 00c0 0a69 bf3f
00000210: 0000 0060 369e bbbf 0000 0060 0e4a c0bf
00000220: 0000 00c0 2484 c43f 0000 0060 9b1f c5bf
00000230: 0000 00e0 1877 b4bf 0000 00c0 562f b03f
00000240: 0000 00e0 3a51 b9bf 0000 0040 38e5 cdbf
00000250: 0000 0000 04f6 d4bf 0000 0080 5308 a0bf
00000260: 0000 0020 ea45 dc3f 0000 0020 20d1 c73f
00000270: 0000 0000 fb82 c3bf 0000 0040 434b ae3f
00000280: 0000 0040 7da1 b0bf 0000 00a0 9904 a4bf
00000290: 0000 00e0 dd01 a6bf 0000 0020 8c49 c03f
000002a0: 0000 0080 5bdb 90bf 0000 0000 de5d a63f
000002b0: 0000 0000 d16f bdbf 0000 0060 9ba9 ae3f
000002c0: 0000 0080 7b9f c83f 0000 00e0 6bd7 933f
000002d0: 0000 00a0 8bbe 933f 0000 0040 d82b d53f
000002e0: 0000 00a0 901a 883f 0000 0040 da31 9abf
000002f0: 0000 00e0 03ac 993f 0000 0060 b59c b23f
00000300: 0000 00e0 0419 c4bf 0000 0060 3ce2 80bf
00000310: 0000 00a0 bb64 d0bf 0000 0080 c4a6 bdbf
00000320: 0000 0040 e5f2 993f 0000 0040 4aac 9abf
00000330: 0000 00e0 ea55 a73f 0000 0060 4f55 b23f
00000340: 0000 0060 daad c8bf 0000 0080 91b1 ba3f
00000350: 0000 00e0 e862 913f 0000 0020 266d 98bf
00000360: 0000 00a0 df89 b5bf 0000 0060 ae52 a7bf
00000370: 0000 0020 0f44 c8bf 0000 00a0 adb9 873f
00000380: 0000 0040 f8a7 c73f 0000 0060 b96c cebf
00000390: 0000 00a0 5a11 d13f 0000 0000 faea be3f
000003a0: 0000 0000 ff49 b93f 0000 0060 7e9d ca3f
000003b0: 0000 0020 3097 a03f 0000 00c0 8c0e be3f
000003c0: 0000 0040 4973 9e3f 0000 00c0 dd6b b3bf
000003d0: 0000 0040 e6af a63f 0000 00a0 aa45 b0bf
000003e0: 0000 00c0 1711 7b3f 0000 0080 11e0 9bbf
000003f0: 0000 00c0 3180 b13f 0000 0080 e116 b53f
