FACE_REC_3/data/embeddings/098_b78efdc8.npy (npy, 1152 bytes, 1 tensors)

array f8 [128]
-0.03062419965863228 0.006778922863304615 0.07415451854467392 0.023172862827777863 0.03348317742347717 -0.09226440638303757 0.030520405620336533 -0.11638269573450089
0.11714816093444824 -0.12915898859500885 0.2533924877643585 0.02858150191605091 -0.22860029339790344 -0.07438378781080246 0.009157110936939716 0.14266985654830933
-0.15257151424884796 -0.08915732800960541 -0.11087559908628464 -0.051139429211616516 0.07650266587734222 -0.028365595266222954 0.05670183524489403 0.0202951617538929
-0.1478053778409958 -0.28277191519737244 -0.12361449003219604 -0.04136740416288376 0.06734040379524231 -0.10046258568763733 0.003960347734391689 -0.027831073850393295
-0.17542557418346405 -0.06303244084119797 -0.032684825360774994 0.061647526919841766 -0.09563092142343521 -0.14744453132152557 0.20622779428958893 0.11384296417236328
-0.11165772378444672 0.05192679911851883 -0.0298342015594244 0.34515324234962463 0.17639751732349396 0.027854105457663536 0.07440301775932312 -0.07128752768039703
0.032532259821891785 -0.2793937027454376 0.06532461941242218 0.06888031959533691 0.08240104466676712 0.10969723761081696 0.12553906440734863 -0.16341617703437805
0.06139378622174263 0.1687464714050293 -0.2028190940618515 0.08796095848083496 0.00959759671241045 0.04521559551358223 0.10280123353004456 -0.007641447242349386
0.22563853859901428 0.08347516506910324 -0.132319837808609 -0.025586742907762527 0.06500402092933655 -0.14954666793346405 -0.05604828894138336 -0.014510370790958405
-0.09351471811532974 -0.19856484234333038 -0.32112061977386475 0.013451466336846352 0.3469878137111664 0.1776380091905594 -0.20873382687568665 -0.015330901369452477
-0.1005726307630539 -0.04008658230304718 0.15506696701049805 0.04430609568953514 -0.04020565003156662 0.017511311918497086 -0.129043847322464 -0.0045096129179000854
0.17042967677116394 0.01945655420422554 -0.07850249856710434 0.24119946360588074 -0.002128206193447113 -0.09698870033025742 0.04615660756826401 0.0002770051942206919
-0.17324432730674744 0.007076054345816374 -0.13670074939727783 -0.10928264260292053 0.008763667196035385 -0.08767847716808319 0.012372376397252083 0.10291965305805206
-0.20620812475681305 0.18160128593444824 0.018024519085884094 -0.045399706810712814 0.010543355718255043 0.016620781272649765 -0.2065267264842987 0.005207687150686979
0.10421472042798996 -0.2827833890914917 0.17946559190750122 0.2645402252674103 0.03445199131965637 0.11706855893135071 0.0828019455075264 0.028832178562879562
-0.06530927866697311 0.04262969270348549 -0.11270181834697723 -0.033812690526247025 -0.01121116615831852 0.041157014667987823 0.12407766282558441 0.022680094465613365
00000000: 0000 0040 f35b 9fbf 0000 0040 37c4 7b3f
00000010: 0000 0060 cafb b23f 0000 0080 a0ba 973f
00000020: 0000 0000 b524 a13f 0000 00e0 a39e b7bf
00000030: 0000 00c0 bd40 9f3f 0000 00a0 41cb bdbf
00000040: 0000 0000 6cfd bd3f 0000 0020 4888 c0bf
00000050: 0000 0020 9537 d03f 0000 0020 7844 9d3f
00000060: 0000 0040 c642 cdbf 0000 00e0 d00a b3bf
00000070: 0000 00a0 f6c0 823f 0000 0080 0143 c23f
00000080: 0000 00a0 7687 c3bf 0000 00c0 03d3 b6bf
00000090: 0000 00e0 5762 bcbf 0000 0080 f22e aabf
000000a0: 0000 00c0 ad95 b33f 0000 00e0 de0b 9dbf
000000b0: 0000 00e0 0508 ad3f 0000 0040 41c8 943f
000000c0: 0000 0060 49eb c2bf 0000 0060 ef18 d2bf
000000d0: 0000 0000 33a5 bfbf 0000 00c0 1b2e a5bf
000000e0: 0000 0080 383d b13f 0000 0080 eab7 b9bf
000000f0: 0000 00c0 b938 703f 0000 00c0 bf7f 9cbf
00000100: 0000 0060 5874 c6bf 0000 00e0 e422 b0bf
00000110: 0000 00c0 10bc a0bf 0000 00c0 4390 af3f
00000120: 0000 00a0 447b b8bf 0000 0060 76df c2bf
00000130: 0000 0020 ac65 ca3f 0000 0000 d024 bd3f
00000140: 0000 00c0 9995 bcbf 0000 0040 2696 aa3f
00000150: 0000 0060 db8c 9ebf 0000 00a0 fd16 d63f
00000160: 0000 00a0 3194 c63f 0000 0060 c985 9c3f
00000170: 0000 0080 130c b33f 0000 0040 e63f b2bf
00000180: 0000 0080 11a8 a03f 0000 0020 96e1 d1bf
00000190: 0000 0040 1db9 b03f 0000 0000 24a2 b13f
000001a0: 0000 0020 3c18 b53f 0000 0040 1e15 bc3f
000001b0: 0000 0000 aa11 c03f 0000 0040 d2ea c4bf
000001c0: 0000 00a0 016f af3f 0000 0000 7c99 c53f
000001d0: 0000 00e0 f9f5 c9bf 0000 0000 9c84 b63f
000001e0: 0000 00a0 e7a7 833f 0000 00a0 7f26 a73f
000001f0: 0000 0080 2e51 ba3f 0000 0060 a34c 7fbf
00000200: 0000 0040 b9e1 cc3f 0000 00e0 a05e b53f
00000210: 0000 0040 dbef c0bf 0000 0040 6933 9abf
00000220: 0000 0080 1aa4 b03f 0000 0060 5824 c3bf
00000230: 0000 0080 5cb2 acbf 0000 0000 9db7 8dbf
00000240: 0000 00a0 94f0 b7bf 0000 00a0 926a c9bf
00000250: 0000 0080 3d8d d4bf 0000 0040 718c 8b3f
00000260: 0000 0060 0c35 d63f 0000 00a0 d7bc c63f
00000270: 0000 0040 cab7 cabf 0000 00c0 ce65 8fbf
00000280: 0000 00c0 20bf b9bf 0000 0080 3a86 a4bf
00000290: 0000 0000 3cd9 c33f 0000 00e0 49af a63f
000002a0: 0000 00c0 d595 a4bf 0000 0040 7cee 913f
000002b0: 0000 0040 8284 c0bf 0000 0000 ac78 72bf
000002c0: 0000 00c0 a3d0 c53f 0000 0040 6bec 933f
000002d0: 0000 0060 bd18 b4bf 0000 00c0 9fdf ce3f
000002e0: 0000 0000 2c6f 61bf 0000 0060 40d4 b8bf
000002f0: 0000 00c0 d6a1 a73f 0000 0040 6027 323f
00000300: 0000 00c0 de2c c6bf 0000 00e0 c7fb 7c3f
00000310: 0000 0000 697f c1bf 0000 0080 f2f9 bbbf
00000320: 0000 0080 aff2 813f 0000 00c0 1872 b6bf
00000330: 0000 0040 b056 893f 0000 0040 f158 ba3f
00000340: 0000 0020 0765 cabf 0000 0000 b63e c73f
00000350: 0000 0000 0575 923f 0000 0060 a13e a7bf
00000360: 0000 0040 c197 853f 0000 00c0 0905 913f
00000370: 0000 00c0 776f cabf 0000 00e0 a754 753f
00000380: 0000 00e0 d0ad ba3f 0000 0080 1f19 d2bf
00000390: 0000 0080 baf8 c63f 0000 0020 3aee d03f
000003a0: 0000 0000 b1a3 a13f 0000 0080 34f8 bd3f
000003b0: 0000 0020 8232 b53f 0000 00c0 2e86 9d3f
000003c0: 0000 00e0 1bb8 b0bf 0000 0020 8fd3 a53f
000003d0: 0000 00c0 06da bcbf 0000 00a0 e54f a1bf
000003e0: 0000 0040 e1f5 86bf 0000 0040 8812 a53f
000003f0: 0000 00c0 8dc3 bf3f 0000 0060 7339 973f
