FACE_REC_3/data/embeddings/099_b7d16411.npy (npy, 1152 bytes, 1 tensors)

array f8 [128]
000000 00 00 00 e0 48 ef ac bf 00 00 00 40 44 74 b7 3f
       -0.05651309713721275 0.09161783754825592
000010 00 00 00 00 ff c1 95 bf 00 00 00 00 4f 9b b7 3f
       -0.021247848868370056 0.09221357107162476
000020 00 00 00 60 67 44 a9 bf 00 00 00 20 38 c9 90 3f
       -0.04935000464320183 0.01639259047806263
000030 00 00 00 80 70 15 8c 3f 00 00 00 80 99 2e c5 bf
       0.013712767511606216 -0.16548460721969604
000040 00 00 00 00 b2 22 c2 3f 00 00 00 80 15 18 bc bf
       0.14168381690979004 -0.10974249243736267
000050 00 00 00 40 e3 92 c7 3f 00 00 00 40 90 cb a9 bf
       0.18417015671730042 -0.050381191074848175
000060 00 00 00 20 3a eb ca bf 00 00 00 20 b0 f8 c8 bf
       -0.21030355989933014 -0.19508935511112213
000070 00 00 00 c0 54 2a b8 3f 00 00 00 c0 d9 a4 c1 3f
       0.09439592063426971 0.13784334063529968
000080 00 00 00 20 60 75 bd bf 00 00 00 00 a2 62 c1 bf
       -0.11507225781679153 -0.13582253456115723
000090 00 00 00 20 f2 de b7 bf 00 00 00 e0 89 a1 b8 bf
       -0.09324563294649124 -0.09621488302946091
0000a0 00 00 00 20 95 51 a1 bf 00 00 00 20 fc fe b3 3f
       -0.033825550228357315 0.078109510242939
0000b0 00 00 00 a0 d8 e7 be 3f 00 00 00 40 90 c7 71 bf
       0.12072519212961197 -0.004340709187090397
0000c0 00 00 00 00 f6 36 ba bf 00 00 00 20 db 9e d8 bf
       -0.10240113735198975 -0.38469579815864563
0000d0 00 00 00 e0 77 a9 c0 bf 00 00 00 80 f8 71 ca bf
       -0.1301717609167099 -0.20660310983657837
0000e0 00 00 00 20 81 11 af 3f 00 00 00 60 bd 0a b5 bf
       0.06068042293190956 -0.08219512552022934
0000f0 00 00 00 20 01 b6 b5 bf 00 00 00 40 b9 a7 7e bf
       -0.08480841666460037 -0.007484172470867634
000100 00 00 00 00 0a e1 c9 bf 00 00 00 80 c9 5b b9 bf
       -0.2021801471710205 -0.09905681014060974
000110 00 00 00 80 da 1f a9 3f 00 00 00 80 8e 67 a2 3f
       0.04907114803791046 0.035946324467659
000120 00 00 00 60 f2 a0 b3 bf 00 00 00 c0 24 ee a7 3f
       -0.07667460292577744 0.04673876613378525
000130 00 00 00 60 e2 fc c4 3f 00 00 00 40 cf 23 9c 3f
       0.16396741569042206 0.0274803526699543
000140 00 00 00 a0 b6 7a c1 bf 00 00 00 e0 af 70 78 bf
       -0.1365574151277542 -0.005966841708868742
000150 00 00 00 20 e5 1b a9 3f 00 00 00 00 d0 b7 d1 3f
       0.04904094710946083 0.2768440246582031
000160 00 00 00 80 45 91 c6 3f 00 00 00 e0 dd 7b b6 3f
       0.17630833387374878 0.08782755583524704
000170 00 00 00 a0 24 dc aa bf 00 00 00 00 10 3b 83 bf
       -0.05246080830693245 -0.009389996528625488
000180 00 00 00 40 d4 19 9e 3f 00 00 00 a0 25 33 c4 bf
       0.02939540520310402 -0.15781088173389435
000190 00 00 00 80 90 16 b6 3f 00 00 00 a0 62 3c b4 3f
       0.08628180623054504 0.07904640585184097
0001a0 00 00 00 e0 38 60 ca 3f 00 00 00 00 c1 e2 ae 3f
       0.2060614675283432 0.060323745012283325
0001b0 00 00 00 40 a7 70 b1 3f 00 00 00 a0 bf eb be bf
       0.06812520325183868 -0.12078473716974258
0001c0 00 00 00 40 4b 22 8c bf 00 00 00 c0 6e 39 af 3f
       -0.013737285509705544 0.06098505109548569
0001d0 00 00 00 00 6d ab cb bf 00 00 00 c0 61 88 a7 3f
       -0.21616899967193604 0.0459623858332634
0001e0 00 00 00 e0 05 fd b6 3f 00 00 00 e0 7c 5e bb bf
       0.08979832381010056 -0.10691051930189133
0001f0 00 00 00 a0 c8 f7 b2 bf 00 00 00 20 41 aa a1 3f
       -0.07409337908029556 0.034502062946558
000200 00 00 00 40 90 9d d5 3f 00 00 00 c0 f0 aa bc 3f
       0.3377419114112854 0.11198334395885468
000210 00 00 00 c0 1b 63 bc bf 00 00 00 00 49 1c b3 bf
       -0.11088727414608002 -0.0746503472328186
000220 00 00 00 80 69 36 c2 3f 00 00 00 60 5d 74 c6 bf
       0.1422855257987976 -0.1754261702299118
000230 00 00 00 00 f2 77 60 bf 00 00 00 00 e2 73 73 3f
       -0.0020103193819522858 0.004749186336994171
000240 00 00 00 c0 b9 05 b5 bf 00 00 00 20 ac 13 c0 bf
       -0.08211861550807953 -0.12560035288333893
000250 00 00 00 20 c8 f3 d1 bf 00 00 00 40 7d 5d 74 3f
       -0.2805042564868927 0.004971970804035664
000260 00 00 00 c0 43 9c d7 3f 00 00 00 60 b0 0d b6 3f
       0.36891263723373413 0.08614637702703476
000270 00 00 00 40 93 3f ca bf 00 00 00 40 99 95 a4 bf
       -0.20506516098976135 -0.040203846991062164
000280 00 00 00 c0 d9 15 bc bf 00 00 00 c0 c7 d9 92 3f
       -0.10970841348171234 0.018408890813589096
000290 00 00 00 c0 22 0b 86 3f 00 00 00 e0 9e 26 b4 3f
       0.01076342724263668 0.07871430367231369
0002a0 00 00 00 00 0d 80 b7 bf 00 00 00 00 5e 82 43 3f
       -0.09179764986038208 0.0005953749641776085
0002b0 00 00 00 e0 d8 5f b6 bf 00 00 00 a0 9f 21 8d bf
       -0.08740001171827316 -0.014224288053810596
0002c0 00 00 00 00 4c c7 b5 3f 00 00 00 20 ee 6d ac bf
       0.08507227897644043 -0.05552620068192482
0002d0 00 00 00 80 e8 a9 7e bf 00 00 00 a0 7c 8d c9 3f
       -0.007486255839467049 0.19963033497333527
0002e0 00 00 00 00 19 88 aa bf 00 00 00 40 81 41 a9 3f
       -0.05181959271430969 0.04932788759469986
0002f0 00 00 00 a0 18 8b ab 3f 00 00 00 e0 1f 66 a5 bf
       0.05379559472203255 -0.04179477319121361
000300 00 00 00 40 dd 09 bc bf 00 00 00 a0 3d dd b8 bf
       -0.10952551662921906 -0.09712586551904678
000310 00 00 00 e0 3e f9 b4 bf 00 00 00 40 0c b7 b0 bf
       -0.08192818611860275 -0.065293088555336
000320 00 00 00 e0 83 28 a9 bf 00 00 00 40 12 1a c1 bf
       -0.04913723096251488 -0.1336081326007843
000330 00 00 00 20 07 c7 85 3f 00 00 00 40 f7 d2 b9 3f
       0.01063352171331644 0.10087533295154572
000340 00 00 00 00 50 5d c8 bf 00 00 00 00 0b 43 c9 3f
       -0.19034767150878906 0.19735848903656006
000350 00 00 00 00 a9 0c 74 3f 00 00 00 80 a2 42 a3 bf
       0.004894886165857315 -0.0376177579164505
000360 00 00 00 80 d4 40 8f 3f 00 00 00 60 f6 40 96 3f
       0.015260372310876846 0.021732186898589134
000370 00 00 00 e0 80 0c a4 bf 00 00 00 00 d3 6c a7 bf
       -0.039157893508672714 -0.045752137899398804
000380 00 00 00 e0 19 52 be 3f 00 00 00 c0 81 de d2 bf
       0.11844026297330856 -0.2948307394981384
000390 00 00 00 40 a5 bb ca 3f 00 00 00 a0 ec 18 c3 3f
       0.20885148644447327 0.14919812977313995
0003a0 00 00 00 20 5a 64 a4 bf 00 00 00 60 0f 0f c8 3f
       -0.03982812538743019 0.18795959651470184
0003b0 00 00 00 60 aa c9 9e bf 00 00 00 60 eb 23 bd 3f
       -0.030066167935729027 0.11382933706045151
0003c0 00 00 00 20 90 35 bb bf 00 00 00 c0 90 c0 82 3f
       -0.10628605633974075 0.009156351909041405
0003d0 00 00 00 20 81 f6 cc bf 00 00 00 40 b8 98 b7 bf
       -0.22627271711826324 -0.09217406809329987
0003e0 00 00 00 60 40 fc a0 3f 00 00 00 60 72 2d b2 bf
       0.03317452594637871 -0.07100596278905869
0003f0 00 00 00 20 43 39 a9 3f 00 00 00 80 fd 42 a8 3f
       0.049265000969171524 0.04738609492778778
