FACE_REC_3/data/embeddings/167_b2390a04.npy (npy, 1152 bytes, 1 tensors)

array f8 [128]
00000000: 0000 0020 0942 babf 0000 00a0 fa60 a63f
00000010: 0000 0080 6413 ae3f 0000 0000 a6b9 b7bf
00000020: 0000 0020 8cbd b9bf 0000 0000 e7a5 8fbf
00000030: 0000 00e0 34f1 8fbf 0000 0040 013f bebf
00000040: 0000 00a0 a9ce ce3f 0000 0060 8141 bcbf
00000050: 0000 00e0 6565 ca3f 0000 00a0 0b07 9c3f
00000060: 0000 0040 f09a d2bf 0000 00a0 37bc 913f
00000070: 0000 00a0 dcd7 bcbf 0000 0060 3a44 c63f
00000080: 0000 0020 a7c4 b8bf 0000 00e0 9178 b6bf
00000090: 0000 00e0 1272 b2bf 0000 00a0 62eb b4bf
000000a0: 0000 0040 e094 c53f 0000 0000 5937 be3f
000000b0: 0000 0060 73f7 9c3f 0000 0000 88ab be3f
000000c0: 0000 0000 6a09 b6bf 0000 00a0 72f5 d0bf
000000d0: 0000 00e0 3d5d abbf 0000 00a0 3ee0 a6bf
000000e0: 0000 00c0 ff30 c3bf 0000 0020 69c7 ccbf
000000f0: 0000 0000 93b3 9c3f 0000 0080 2b02 c03f
00000100: 0000 0000 07f3 c2bf 0000 0020 d428 983f
00000110: 0000 0040 a074 a1bf 0000 00a0 8e7d ae3f
00000120: 0000 00e0 e5e7 9dbf 0000 00e0 8fb8 bcbf
00000130: 0000 00a0 4d5a c23f 0000 0000 23ce b63f
00000140: 0000 0000 7212 cbbf 0000 0000 3430 4c3f
00000150: 0000 0080 12aa ab3f 0000 00a0 ab03 d03f
00000160: 0000 0040 d037 cf3f 0000 00c0 54c2 59bf
00000170: 0000 00c0 263a 94bf 0000 0080 a9e0 c3bf
00000180: 0000 0020 33ef b23f 0000 00a0 7678 d5bf
00000190: 0000 0080 0c7a a0bf 0000 00c0 6ae4 c33f
000001a0: 0000 00e0 b976 b1bf 0000 0020 deb7 b13f
000001b0: 0000 0040 c5e0 933f 0000 00e0 0653 cdbf
000001c0: 0000 0000 959b a73f 0000 0040 d329 a83f
000001d0: 0000 00e0 7bd2 c9bf 0000 0020 d7c2 74bf
000001e0: 0000 0080 b106 b03f 0000 0080 6939 c8bf
000001f0: 0000 0040 e686 a5bf 0000 00e0 b233 a4bf
00000200: 0000 0080 55f9 cd3f 0000 0060 06bd c33f
00000210: 0000 00a0 89dc bdbf 0000 00c0 b827 c4bf
00000220: 0000 0020 3bf4 b93f 0000 00a0 6e9e cbbf
00000230: 0000 00a0 fcb2 bbbf 0000 0060 1dcc ba3f
00000240: 0000 0020 a451 c5bf 0000 0060 a37d c8bf
00000250: 0000 0000 96ca cfbf 0000 00a0 b432 96bf
00000260: 0000 0080 9cb7 d63f 0000 0000 6d21 be3f
00000270: 0000 0060 c45a c0bf 0000 00e0 001f bb3f
00000280: 0000 0080 d81c c6bf 0000 0060 1bf9 af3f
00000290: 0000 00c0 30be 943f 0000 0020 077a bb3f
000002a0: 0000 00a0 1079 973f 0000 0000 c97c 783f
000002b0: 0000 00e0 a325 babf 0000 0020 447b a33f
000002c0: 0000 0020 9c18 c73f 0000 0000 9c0b 5f3f
000002d0: 0000 0040 769a 95bf 0000 00e0 facf d63f
000002e0: 0000 0060 6834 993f 0000 0040 27b8 9abf
000002f0: 0000 00a0 8c47 af3f 0000 00a0 4f4e b23f
00000300: 0000 00e0 4afc b8bf 0000 0060 8fa2 71bf
00000310: 0000 0040 8448 babf 0000 0060 851a afbf
00000320: 0000 0000 61bb a4bf 0000 0060 ae12 b0bf
00000330: 0000 0020 a981 a33f 0000 0060 d276 b73f
00000340: 0000 00c0 fafd d0bf 0000 00c0 e803 c93f
00000350: 0000 00a0 46b9 b1bf 0000 00c0 82d5 80bf
00000360: 0000 0000 35eb 59bf 0000 0040 499d bcbf
00000370: 0000 0020 40dd a8bf 0000 00a0 7a9b a33f
00000380: 0000 0000 4c55 c23f 0000 00c0 77d3 d2bf
00000390: 0000 00e0 e37b c83f 0000 00c0 e13c c33f
000003a0: 0000 0060 9eea bd3f 0000 00c0 2657 c73f
000003b0: 0000 0040 e26b 613f 0000 00e0 afbf c03f
000003c0: 0000 00a0 3aea b2bf 0000 0040 9d12 afbf
000003d0: 0000 00a0 28e7 c4bf 0000 00e0 0142 a63f
000003e0: 0000 0080 a74a a63f 0000 0080 f2bf 94bf
000003f0: 0000 00c0 7612 a23f 0000 00a0 9458 9c3f
-0.10257012397050858 0.043708641082048416 0.05874170362949371 -0.09267652034759521 -0.10054851323366165 -0.015453152358531952 -0.015596783719956875 -0.11814887821674347
0.24068184196949005 -0.11037453263998032 0.20621941983699799 0.027370626106858253 -0.29070669412612915 0.017319554463028908 -0.11266878992319107 0.17395715415477753
-0.09675068408250809 -0.08777724951505661 -0.07205312699079514 -0.08171669393777847 0.16860583424568176 0.11803203821182251 0.028287699446082115 0.11980485916137695
-0.08608114719390869 -0.2649809420108795 -0.05344575271010399 -0.04467960074543953 -0.1499328315258026 -0.22483552992343903 0.02802877128124237 0.12506622076034546
-0.14804160594940186 0.023593248799443245 -0.03409291058778763 0.059551674872636795 -0.02920493297278881 -0.11219119280576706 0.14338083565235138 0.08908289670944214
-0.2115004062652588 0.0008602384477853775 0.05403192341327667 0.2502240240573883 0.24389079213142395 -0.0015722110401839018 -0.01975307986140251 -0.15529364347457886
0.07396239787340164 -0.3354775011539459 -0.032181158661842346 0.15540823340415955 -0.06821786612272263 0.06921184808015823 0.019412118941545486 -0.22909627854824066
0.04610887169837952 0.04719410091638565 -0.2017359584569931 -0.005068626720458269 0.06260213255882263 -0.1892520785331726 -0.04204482585191727 -0.03945693001151085
0.2341715693473816 0.1542060822248459 -0.11664638668298721 -0.1574622094631195 0.10138291865587234 -0.21577246487140656 -0.10819987207651138 0.10467704385519028
-0.16655398905277252 -0.19133417308330536 -0.24836993217468262 -0.02167780138552189 0.3549567461013794 0.11769753694534302 -0.12776999175548553 0.10594182461500168
-0.17275530099868774 0.06244741007685661 0.02025676891207695 0.10733074694871902 0.022922763600945473 0.005978379398584366 -0.10213684290647507 0.03804982081055641
0.18043853342533112 0.0018948577344417572 -0.021097037941217422 0.3564440906047821 0.024613982066512108 -0.02609311416745186 0.06109275296330452 0.07150743156671524
-0.09759967774152756 -0.0043054199777543545 -0.10266901552677155 -0.06074921414256096 -0.040492087602615356 -0.06278505176305771 0.03809860721230507 0.09165682643651962
-0.2655016779899597 0.19543179869651794 -0.06923333555459976 -0.00821973942220211 -0.0015819566324353218 -0.1117749959230423 -0.04856300726532936 0.03829558566212654
0.14322805404663086 -0.2941569685935974 0.19128082692623138 0.1502954661846161 0.1168612465262413 0.1823471486568451 0.002126638311892748 0.13084982335567474
-0.07388655096292496 -0.060688890516757965 -0.163304403424263 0.04347234591841698 0.04353831708431244 -0.020263470709323883 0.03529711812734604 0.027681658044457436
