FACE_REC_3/data/embeddings/169_b57b3732.npy (npy, 1152 bytes, 1 tensors)

array f8 [128]
-0.1327381581068039 0.03223671764135361 0.07975084334611893 -0.12287428975105286 -0.04192264750599861 -0.022694386541843414 -0.014073517173528671 -0.07665420323610306
0.24579589068889618 -0.12727689743041992 0.19399315118789673 0.051162004470825195 -0.28394851088523865 0.006174304522573948 -0.007999937050044537 0.17298847436904907
-0.15513381361961365 -0.07012549787759781 -0.10025933384895325 -0.06959912180900574 0.18239352107048035 0.14085888862609863 0.018487881869077682 0.12439291179180145
-0.13815119862556458 -0.1828407198190689 -0.04693933576345444 -0.07530686259269714 -0.12110541760921478 -0.202969491481781 0.034795839339494705 0.0725562795996666
-0.12790541350841522 0.015910573303699493 -0.027577145025134087 0.12128642201423645 -0.023731810972094536 -0.13846264779567719 0.1556989550590515 0.06973913311958313
-0.20963044464588165 -0.0106052216142416 0.01020005438476801 0.19060420989990234 0.22843854129314423 0.025218550115823746 -0.001072809100151062 -0.15448006987571716
0.1423412710428238 -0.3792076110839844 0.0017143823206424713 0.13458336889743805 -0.05596672743558884 0.11809530854225159 0.015937529504299164 -0.26352083683013916
0.06139779090881348 0.04224222153425217 -0.26294344663619995 0.020974986255168915 0.08110630512237549 -0.18929429352283478 0.01326133031398058 -0.03235867992043495
0.1766684204339981 0.13167932629585266 -0.14760135114192963 -0.16695503890514374 0.1037142276763916 -0.21657238900661469 -0.1040312871336937 0.17295004427433014
-0.1488330364227295 -0.22418253123760223 -0.2432771474123001 0.01738589070737362 0.33915287256240845 0.1480991393327713 -0.0904267281293869 0.05219725891947746
-0.1500069797039032 -0.006757576018571854 -0.03356654942035675 0.12590163946151733 0.052761487662792206 0.012286420911550522 -0.07947671413421631 0.06309018284082413
0.2105277180671692 -0.013048915192484856 0.0074972668662667274 0.38045114278793335 0.051600947976112366 -0.014295190572738647 0.015653621405363083 0.10044781118631363
-0.08257098495960236 0.015144694596529007 -0.0526791587471962 -0.006574841216206551 -0.020840425044298172 -0.06566318869590759 0.054085880517959595 0.06961766630411148
-0.20958250761032104 0.25027602910995483 -0.09642993658781052 -0.036940887570381165 -0.06266215443611145 -0.11404411494731903 -0.09012806415557861 0.047730207443237305
0.17398245632648468 -0.26249098777770996 0.18399356305599213 0.1842835545539856 0.12984853982925415 0.17703543603420258 -0.01471556443721056 0.17530281841754913
-0.0492088608443737 -0.04819241538643837 -0.17949645221233368 0.008140900172293186 0.05323841795325279 0.010188417509198189 0.05783209949731827 0.05213271081447601
00000000: 0000 0060 90fd c0bf 0000 00c0 5481 a03f
00000010: 0000 0020 8d6a b43f 0000 0080 b074 bfbf
00000020: 0000 00a0 e276 a5bf 0000 0080 323d 97bf
00000030: 0000 0080 93d2 8cbf 0000 0020 9c9f b3bf
00000040: 0000 0060 3d76 cf3f 0000 0000 9c4a c0bf
00000050: 0000 0080 c4d4 c83f 0000 0000 e831 aa3f
00000060: 0000 0060 362c d2bf 0000 0040 3a4a 793f
00000070: 0000 0060 4562 80bf 0000 0080 7c24 c63f
00000080: 0000 00c0 6cdb c3bf 0000 00a0 bef3 b1bf
00000090: 0000 0080 98aa b9bf 0000 0080 3fd1 b1bf
000000a0: 0000 00c0 ab58 c73f 0000 0000 aa07 c23f
000000b0: 0000 00c0 7cee 923f 0000 00c0 36d8 bf3f
000000c0: 0000 0040 f0ae c1bf 0000 0020 5367 c7bf
000000d0: 0000 00c0 6e08 a8bf 0000 0080 4f47 b3bf
000000e0: 0000 00c0 c300 bfbf 0000 0080 e7fa c9bf
000000f0: 0000 00a0 c2d0 a13f 0000 0060 0c93 b23f
00000100: 0000 0060 345f c0bf 0000 0080 dc4a 903f
00000110: 0000 00e0 2e3d 9cbf 0000 0080 a00c bf3f
00000120: 0000 00e0 264d 98bf 0000 00e0 24b9 c1bf
00000130: 0000 0080 f1ed c33f 0000 0080 6cda b13f
00000140: 0000 00a0 2bd5 cabf 0000 00c0 30b8 85bf
00000150: 0000 0020 c4e3 843f 0000 0000 b865 c83f
00000160: 0000 0060 793d cd3f 0000 0040 e4d2 993f
00000170: 0000 0000 b093 51bf 0000 00c0 00c6 c3bf
00000180: 0000 0020 3d38 c23f 0000 0000 f044 d8bf
00000190: 0000 0000 a416 5c3f 0000 0020 073a c13f
000001a0: 0000 00c0 aba7 acbf 0000 0080 7e3b be3f
000001b0: 0000 0080 ed51 903f 0000 0080 86dd d0bf
000001c0: 0000 0000 886f af3f 0000 00c0 c5a0 a53f
000001d0: 0000 00c0 10d4 d0bf 0000 0080 777a 953f
000001e0: 0000 0000 62c3 b43f 0000 00a0 cb3a c8bf
000001f0: 0000 00a0 c128 8b3f 0000 0020 5191 a0bf
00000200: 0000 0020 129d c63f 0000 0040 deda c03f
00000210: 0000 00e0 99e4 c2bf 0000 0060 c85e c5bf
00000220: 0000 0000 048d ba3f 0000 00e0 a4b8 cbbf
00000230: 0000 0060 cba1 babf 0000 0020 3a23 c63f
00000240: 0000 0000 f60c c3bf 0000 0060 03b2 ccbf
00000250: 0000 00a0 b423 cfbf 0000 0060 9bcd 913f
00000260: 0000 0040 aeb4 d53f 0000 00a0 e9f4 c23f
00000270: 0000 00c0 3426 b7bf 0000 0060 99b9 aa3f
00000280: 0000 00c0 6d33 c3bf 0000 0000 d5ad 7bbf
00000290: 0000 0080 a22f a1bf 0000 0080 8b1d c03f
000002a0: 0000 00c0 8d03 ab3f 0000 0080 9f29 893f
000002b0: 0000 0000 9658 b4bf 0000 00a0 ad26 b03f
000002c0: 0000 0080 92f2 ca3f 0000 00c0 63b9 8abf
000002d0: 0000 0040 74b5 7e3f 0000 00c0 4f59 d83f
000002e0: 0000 0080 706b aa3f 0000 0000 cc46 8dbf
000002f0: 0000 00c0 8007 903f 0000 00a0 f2b6 b93f
00000300: 0000 0040 5f23 b5bf 0000 0080 2e04 8f3f
00000310: 0000 0040 c3f8 aabf 0000 0080 38ee 7abf
00000320: 0000 0040 3157 95bf 0000 0080 4dcf b0bf
00000330: 0000 0000 25b1 ab3f 0000 00a0 76d2 b13f
00000340: 0000 0080 99d3 cabf 0000 00c0 8504 d03f
00000350: 0000 00e0 a1af b8bf 0000 0080 eae9 a2bf
00000360: 0000 0080 a00a b0bf 0000 00c0 fe31 bdbf
00000370: 0000 0000 a212 b7bf 0000 0000 1870 a83f
00000380: 0000 00a0 0e45 c63f 0000 0000 a7cc d0bf
00000390: 0000 00e0 198d c73f 0000 0080 9a96 c73f
000003a0: 0000 0080 e09e c03f 0000 00e0 18a9 c63f
000003b0: 0000 00a0 3123 8ebf 0000 00a0 5270 c63f
000003c0: 0000 0060 e731 a9bf 0000 0020 adac a8bf
000003d0: 0000 0060 bdf9 c6bf 0000 0020 2dac 803f
000003e0: 0000 00e0 1042 ab3f 0000 0040 aadd 843f
000003f0: 0000 0040 2b9c ad3f 0000 0080 23b1 aa3f
